KnowledgeSeq2Seq(
  (bridge): Sequential(
    (0): Linear(in_features=1200, out_features=600, bias=True)
    (1): Tanh()
  )
  (knowledge_encoder): RNNEncoder(
    (embedder): Embedder(16840, 200, padding_idx=0)
    (rnn): GRU(200, 300, batch_first=True, bidirectional=True)
  )
  (knowledge_encoder2): RNNEncoder(
    (rnn): GRU(600, 300, batch_first=True, bidirectional=True)
  )
  (src_encoder): RNNEncoder(
    (embedder): Embedder(16840, 200, padding_idx=0)
    (rnn): GRU(200, 300, batch_first=True, bidirectional=True)
  )
  (src_current_encoder): RNNEncoder(
    (embedder): Embedder(16840, 200, padding_idx=0)
    (rnn): GRU(200, 300, batch_first=True, bidirectional=True)
  )
  (src_encoder2): RNNEncoder(
    (rnn): GRU(600, 300, batch_first=True, bidirectional=True)
  )
  (tattention): tattention(
    (dropout): Dropout(p=0.0, inplace=False)
    (softmax): Softmax(dim=-1)
    (linear1): Linear(in_features=600, out_features=600, bias=True)
    (w1): Linear(in_features=600, out_features=600, bias=True)
    (w2): Linear(in_features=600, out_features=600, bias=True)
    (layer_norm): LayerNorm((600,), eps=1e-05, elementwise_affine=True)
    (relu): ReLU(inplace=True)
  )
  (prior_cue_attention): Attention(600, 600, 600, mode='mlp')
  (prior_src_attention): Attention(600, 600, 600, mode='mlp')
  (decoder): RNNDecoder(
    (embedder): Embedder(16840, 200, padding_idx=0)
    (knowledge_attention): Attention(600, 600, 600, mode='mlp')
    (fc_memory): Sequential(
      (0): Linear(in_features=1, out_features=600, bias=True)
      (1): Tanh()
    )
    (select_st): Attention(600, 600, 600, mode='mlp')
    (attention): Attention(600, 600, 600, mode='mlp')
    (rnn): GRU(1400, 600, batch_first=True)
    (fc1): Linear(in_features=600, out_features=600, bias=True)
    (fc2): Linear(in_features=600, out_features=600, bias=True)
    (fc3): Linear(in_features=1200, out_features=1, bias=True)
    (fc4): Linear(in_features=600, out_features=600, bias=True)
    (fc5): Linear(in_features=600, out_features=600, bias=True)
    (fc6): Linear(in_features=1200, out_features=1, bias=True)
    (fc7): Linear(in_features=600, out_features=1, bias=False)
    (tanh): Tanh()
    (sigmoid): Sigmoid()
    (softmax): Softmax(dim=-1)
    (output_layer): Sequential(
      (0): Dropout(p=0.3, inplace=False)
      (1): Linear(in_features=1200, out_features=600, bias=True)
      (2): Linear(in_features=600, out_features=16840, bias=True)
      (3): LogSoftmax(dim=-1)
    )
  )
  (log_softmax): LogSoftmax(dim=-1)
  (softmax): Softmax(dim=-1)
  (sigmoid): Sigmoid()
  (softplus): Softplus(beta=1, threshold=20)
  (bow_output_layer): Sequential(
    (0): Linear(in_features=600, out_features=600, bias=True)
    (1): Tanh()
    (2): Linear(in_features=600, out_features=16840, bias=True)
    (3): LogSoftmax(dim=-1)
  )
  (nll_loss): NLLLoss()
  (kl_loss): KLDivLoss()
)
Number of parameters: 41108682

Training starts ...
NLL-162.093   NLL_PPL-16891.487   ACC-0.000   LOSS-162.093

=====================================================================================
================================== Model Training ===================================
=====================================================================================

[Train][ 1][10/136]   NLL-154.392   ACC-0.059   LOSS-154.392   TIME-0.74
[Train][ 1][20/136]   NLL-149.705   ACC-0.067   LOSS-149.705   TIME-0.56
KnowledgeSeq2Seq(
  (bridge): Sequential(
    (0): Linear(in_features=1200, out_features=600, bias=True)
    (1): Tanh()
  )
  (knowledge_encoder): RNNEncoder(
    (embedder): Embedder(16840, 200, padding_idx=0)
    (rnn): GRU(200, 300, batch_first=True, bidirectional=True)
  )
  (knowledge_encoder2): RNNEncoder(
    (rnn): GRU(600, 300, batch_first=True, bidirectional=True)
  )
  (src_encoder): RNNEncoder(
    (embedder): Embedder(16840, 200, padding_idx=0)
    (rnn): GRU(200, 300, batch_first=True, bidirectional=True)
  )
  (src_current_encoder): RNNEncoder(
    (embedder): Embedder(16840, 200, padding_idx=0)
    (rnn): GRU(200, 300, batch_first=True, bidirectional=True)
  )
  (src_encoder2): RNNEncoder(
    (rnn): GRU(600, 300, batch_first=True, bidirectional=True)
  )
  (tattention): tattention(
    (dropout): Dropout(p=0.0, inplace=False)
    (softmax): Softmax(dim=-1)
    (linear1): Linear(in_features=600, out_features=600, bias=True)
    (w1): Linear(in_features=600, out_features=600, bias=True)
    (w2): Linear(in_features=600, out_features=600, bias=True)
    (layer_norm): LayerNorm((600,), eps=1e-05, elementwise_affine=True)
    (relu): ReLU(inplace=True)
  )
  (prior_cue_attention): Attention(600, 600, 600, mode='mlp')
  (prior_src_attention): Attention(600, 600, 600, mode='mlp')
  (decoder): RNNDecoder(
    (embedder): Embedder(16840, 200, padding_idx=0)
    (knowledge_attention): Attention(600, 600, 600, mode='mlp')
    (fc_memory): Sequential(
      (0): Linear(in_features=1, out_features=600, bias=True)
      (1): Tanh()
    )
    (select_st): Attention(600, 600, 600, mode='mlp')
    (attention): Attention(600, 600, 600, mode='mlp')
    (rnn): GRU(1400, 600, batch_first=True)
    (fc1): Linear(in_features=600, out_features=600, bias=True)
    (fc2): Linear(in_features=600, out_features=600, bias=True)
    (fc3): Linear(in_features=1200, out_features=1, bias=True)
    (fc4): Linear(in_features=600, out_features=600, bias=True)
    (fc5): Linear(in_features=600, out_features=600, bias=True)
    (fc6): Linear(in_features=1200, out_features=1, bias=True)
    (fc7): Linear(in_features=600, out_features=1, bias=False)
    (tanh): Tanh()
    (sigmoid): Sigmoid()
    (softmax): Softmax(dim=-1)
    (output_layer): Sequential(
      (0): Dropout(p=0.3, inplace=False)
      (1): Linear(in_features=1200, out_features=600, bias=True)
      (2): Linear(in_features=600, out_features=16840, bias=True)
      (3): LogSoftmax(dim=-1)
    )
  )
  (log_softmax): LogSoftmax(dim=-1)
  (softmax): Softmax(dim=-1)
  (sigmoid): Sigmoid()
  (softplus): Softplus(beta=1, threshold=20)
  (bow_output_layer): Sequential(
    (0): Linear(in_features=600, out_features=600, bias=True)
    (1): Tanh()
    (2): Linear(in_features=600, out_features=16840, bias=True)
    (3): LogSoftmax(dim=-1)
  )
  (nll_loss): NLLLoss()
  (kl_loss): KLDivLoss()
)
Number of parameters: 41108682

Training starts ...
NLL-162.016   NLL_PPL-16813.547   ACC-0.000   LOSS-162.016

=====================================================================================
================================== Model Training ===================================
…
[Train][60][120/136]   NLL-25.376   ACC-0.689   LOSS-25.376   TIME-1.09
[Train][60][130/136]   NLL-28.468   ACC-0.693   LOSS-28.468   TIME-0.92
Generation starts ...
None
Saved model state to './models_person_mul_sst_2_travel/state_epoch_60.model'
Saved data state to './models_person_mul_sst_2_travel/state_epoch_60.data'

Training done!

Loaded model state from './models_person_mul_sst_2_travel/best.model'
Loaded data state from './models_person_mul_sst_2_travel/best.data' with (epoch-60 best_valid_metric-42.762)
Testing starts ...
NLL-40.939   NLL_PPL-12.419   ACC-0.617   LOSS-40.939
Generation starts ...
KnowledgeSeq2Seq(
  (bridge): Sequential(
    (0): Linear(in_features=1200, out_features=600, bias=True)
    (1): Tanh()
  )
  (knowledge_encoder): RNNEncoder(
    (embedder): Embedder(16840, 200, padding_idx=0)
    (rnn): GRU(200, 300, batch_first=True, bidirectional=True)
  )
  (knowledge_encoder2): RNNEncoder(
    (rnn): GRU(600, 300, batch_first=True, bidirectional=True)
  )
  (src_encoder): RNNEncoder(
    (embedder): Embedder(16840, 200, padding_idx=0)
    (rnn): GRU(200, 300, batch_first=True, bidirectional=True)
  )
  (src_current_encoder): RNNEncoder(
    (embedder): Embedder(16840, 200, padding_idx=0)
    (rnn): GRU(200, 300, batch_first=True, bidirectional=True)
  )
  (src_encoder2): RNNEncoder(
    (rnn): GRU(600, 300, batch_first=True, bidirectional=True)
  )
  (tattention): tattention(
    (dropout): Dropout(p=0.0, inplace=False)
    (softmax): Softmax(dim=-1)
    (linear1): Linear(in_features=600, out_features=600, bias=True)
    (w1): Linear(in_features=600, out_features=600, bias=True)
    (w2): Linear(in_features=600, out_features=600, bias=True)
    (layer_norm): LayerNorm((600,), eps=1e-05, elementwise_affine=True)
    (relu): ReLU(inplace=True)
  )
  (prior_cue_attention): Attention(600, 600, 600, mode='mlp')
  (prior_src_attention): Attention(600, 600, 600, mode='mlp')
  (decoder): RNNDecoder(
    (embedder): Embedder(16840, 200, padding_idx=0)
    (knowledge_attention): Attention(600, 600, 600, mode='mlp')
    (fc_memory): Sequential(
      (0): Linear(in_features=1, out_features=600, bias=True)
      (1): Tanh()
    )
    (select_st): Attention(600, 600, 600, mode='mlp')
    (attention): Attention(600, 600, 600, mode='mlp')
    (rnn): GRU(1400, 600, batch_first=True)
    (fc1): Linear(in_features=600, out_features=600, bias=True)
    (fc2): Linear(in_features=600, out_features=600, bias=True)
    (fc3): Linear(in_features=1200, out_features=1, bias=True)
    (fc4): Linear(in_features=600, out_features=600, bias=True)
    (fc5): Linear(in_features=600, out_features=600, bias=True)
    (fc6): Linear(in_features=1200, out_features=1, bias=True)
    (fc7): Linear(in_features=600, out_features=1, bias=False)
    (tanh): Tanh()
    (sigmoid): Sigmoid()
    (softmax): Softmax(dim=-1)
    (output_layer): Sequential(
      (0): Dropout(p=0.3, inplace=False)
      (1): Linear(in_features=1200, out_features=600, bias=True)
      (2): Linear(in_features=600, out_features=16840, bias=True)
      (3): LogSoftmax(dim=-1)
    )
  )
  (log_softmax): LogSoftmax(dim=-1)
  (softmax): Softmax(dim=-1)
  (sigmoid): Sigmoid()
  (softplus): Softplus(beta=1, threshold=20)
  (bow_output_layer): Sequential(
    (0): Linear(in_features=600, out_features=600, bias=True)
    (1): Tanh()
    (2): Linear(in_features=600, out_features=16840, bias=True)
    (3): LogSoftmax(dim=-1)
  )
  (nll_loss): NLLLoss()
  (kl_loss): KLDivLoss()
)
Number of parameters: 41108682

Training starts ...
NLL-162.018   NLL_PPL-16814.867   ACC-0.000   LOSS-162.018

=====================================================================================
================================== Model Training ===================================
…
[Train][60][120/136]   NLL-25.910   ACC-0.674   LOSS-25.910   TIME-0.58
[Train][60][130/136]   NLL-29.010   ACC-0.672   LOSS-29.010   TIME-0.89
Generation starts ...
None
Saved model state to './models_person_mul_sst_2_travel/state_epoch_60.model'
Saved data state to './models_person_mul_sst_2_travel/state_epoch_60.data'

Training done!

Loaded model state from './models_person_mul_sst_2_travel/best.model'
Loaded data state from './models_person_mul_sst_2_travel/best.data' with (epoch-60 best_valid_metric-43.156)
Testing starts ...
NLL-41.246   NLL_PPL-12.655   ACC-0.609   LOSS-41.246
Generation starts ...
KnowledgeSeq2Seq(
  (bridge): Sequential(
    (0): Linear(in_features=1200, out_features=600, bias=True)
    (1): Tanh()
  )
  (knowledge_encoder): RNNEncoder(
    (embedder): Embedder(16840, 200, padding_idx=0)
    (rnn): GRU(200, 300, batch_first=True, bidirectional=True)
  )
  (knowledge_encoder2): RNNEncoder(
    (rnn): GRU(600, 300, batch_first=True, bidirectional=True)
  )
  (src_encoder): RNNEncoder(
    (embedder): Embedder(16840, 200, padding_idx=0)
    (rnn): GRU(200, 300, batch_first=True, bidirectional=True)
  )
  (src_current_encoder): RNNEncoder(
    (embedder): Embedder(16840, 200, padding_idx=0)
    (rnn): GRU(200, 300, batch_first=True, bidirectional=True)
  )
  (src_encoder2): RNNEncoder(
    (rnn): GRU(600, 300, batch_first=True, bidirectional=True)
  )
  (tattention): tattention(
    (dropout): Dropout(p=0.0, inplace=False)
    (softmax): Softmax(dim=-1)
    (linear1): Linear(in_features=600, out_features=600, bias=True)
    (w1): Linear(in_features=600, out_features=600, bias=True)
    (w2): Linear(in_features=600, out_features=600, bias=True)
    (layer_norm): LayerNorm((600,), eps=1e-05, elementwise_affine=True)
    (relu): ReLU(inplace=True)
  )
  (prior_cue_attention): Attention(600, 600, 600, mode='mlp')
  (prior_src_attention): Attention(600, 600, 600, mode='mlp')
  (decoder): RNNDecoder(
    (embedder): Embedder(16840, 200, padding_idx=0)
    (knowledge_attention): Attention(600, 600, 600, mode='mlp')
    (fc_memory): Sequential(
      (0): Linear(in_features=1, out_features=600, bias=True)
      (1): Tanh()
    )
    (select_st): Attention(600, 600, 600, mode='mlp')
    (attention): Attention(600, 600, 600, mode='mlp')
    (rnn): GRU(1400, 600, batch_first=True)
    (fc1): Linear(in_features=600, out_features=600, bias=True)
    (fc2): Linear(in_features=600, out_features=600, bias=True)
    (fc3): Linear(in_features=1200, out_features=1, bias=True)
    (fc4): Linear(in_features=600, out_features=600, bias=True)
    (fc5): Linear(in_features=600, out_features=600, bias=True)
    (fc6): Linear(in_features=1200, out_features=1, bias=True)
    (fc7): Linear(in_features=600, out_features=1, bias=False)
    (tanh): Tanh()
    (sigmoid): Sigmoid()
    (softmax): Softmax(dim=-1)
    (output_layer): Sequential(
      (0): Dropout(p=0.3, inplace=False)
      (1): Linear(in_features=1200, out_features=600, bias=True)
      (2): Linear(in_features=600, out_features=16840, bias=True)
      (3): LogSoftmax(dim=-1)
    )
  )
  (log_softmax): LogSoftmax(dim=-1)
  (softmax): Softmax(dim=-1)
  (sigmoid): Sigmoid()
  (softplus): Softplus(beta=1, threshold=20)
  (bow_output_layer): Sequential(
    (0): Linear(in_features=600, out_features=600, bias=True)
    (1): Tanh()
    (2): Linear(in_features=600, out_features=16840, bias=True)
    (3): LogSoftmax(dim=-1)
  )
  (nll_loss): NLLLoss()
  (kl_loss): KLDivLoss()
)
Number of parameters: 41108682

Training starts ...
KnowledgeSeq2Seq(
  (bridge): Sequential(
    (0): Linear(in_features=1200, out_features=600, bias=True)
    (1): Tanh()
  )
  (knowledge_encoder): RNNEncoder(
    (embedder): Embedder(16840, 200, padding_idx=0)
    (rnn): GRU(200, 300, batch_first=True, bidirectional=True)
  )
  (knowledge_encoder2): RNNEncoder(
    (rnn): GRU(600, 300, batch_first=True, bidirectional=True)
  )
  (src_encoder): RNNEncoder(
    (embedder): Embedder(16840, 200, padding_idx=0)
    (rnn): GRU(200, 300, batch_first=True, bidirectional=True)
  )
  (src_current_encoder): RNNEncoder(
    (embedder): Embedder(16840, 200, padding_idx=0)
    (rnn): GRU(200, 300, batch_first=True, bidirectional=True)
  )
  (src_encoder2): RNNEncoder(
    (rnn): GRU(600, 300, batch_first=True, bidirectional=True)
  )
  (tattention): tattention(
    (dropout): Dropout(p=0.0, inplace=False)
    (softmax): Softmax(dim=-1)
    (linear1): Linear(in_features=600, out_features=600, bias=True)
    (w1): Linear(in_features=600, out_features=600, bias=True)
    (w2): Linear(in_features=600, out_features=600, bias=True)
    (layer_norm): LayerNorm((600,), eps=1e-05, elementwise_affine=True)
    (relu): ReLU(inplace=True)
  )
  (prior_cue_attention): Attention(600, 600, 600, mode='mlp')
  (prior_src_attention): Attention(600, 600, 600, mode='mlp')
  (decoder): RNNDecoder(
    (embedder): Embedder(16840, 200, padding_idx=0)
    (knowledge_attention): Attention(600, 600, 600, mode='mlp')
    (fc_memory): Sequential(
      (0): Linear(in_features=1, out_features=600, bias=True)
      (1): Tanh()
    )
    (select_st): Attention(600, 600, 600, mode='mlp')
    (attention): Attention(600, 600, 600, mode='mlp')
    (rnn): GRU(1400, 600, batch_first=True)
    (fc1): Linear(in_features=600, out_features=600, bias=True)
    (fc2): Linear(in_features=600, out_features=600, bias=True)
    (fc3): Linear(in_features=1200, out_features=1, bias=True)
    (fc4): Linear(in_features=600, out_features=600, bias=True)
    (fc5): Linear(in_features=600, out_features=600, bias=True)
    (fc6): Linear(in_features=1200, out_features=1, bias=True)
    (fc7): Linear(in_features=600, out_features=1, bias=False)
    (tanh): Tanh()
    (sigmoid): Sigmoid()
    (softmax): Softmax(dim=-1)
    (output_layer): Sequential(
      (0): Dropout(p=0.3, inplace=False)
      (1): Linear(in_features=1200, out_features=600, bias=True)
      (2): Linear(in_features=600, out_features=16840, bias=True)
      (3): LogSoftmax(dim=-1)
    )
  )
  (log_softmax): LogSoftmax(dim=-1)
  (softmax): Softmax(dim=-1)
  (sigmoid): Sigmoid()
  (softplus): Softplus(beta=1, threshold=20)
  (bow_output_layer): Sequential(
    (0): Linear(in_features=600, out_features=600, bias=True)
    (1): Tanh()
    (2): Linear(in_features=600, out_features=16840, bias=True)
    (3): LogSoftmax(dim=-1)
  )
  (nll_loss): NLLLoss()
  (kl_loss): KLDivLoss()
)
Number of parameters: 41108682

Training starts ...
KnowledgeSeq2Seq(
  (bridge): Sequential(
    (0): Linear(in_features=1200, out_features=600, bias=True)
    (1): Tanh()
  )
  (knowledge_encoder): RNNEncoder(
    (embedder): Embedder(16840, 200, padding_idx=0)
    (rnn): GRU(200, 300, batch_first=True, bidirectional=True)
  )
  (knowledge_encoder2): RNNEncoder(
    (rnn): GRU(600, 300, batch_first=True, bidirectional=True)
  )
  (src_encoder): RNNEncoder(
    (embedder): Embedder(16840, 200, padding_idx=0)
    (rnn): GRU(200, 300, batch_first=True, bidirectional=True)
  )
  (src_current_encoder): RNNEncoder(
    (embedder): Embedder(16840, 200, padding_idx=0)
    (rnn): GRU(200, 300, batch_first=True, bidirectional=True)
  )
  (src_encoder2): RNNEncoder(
    (rnn): GRU(600, 300, batch_first=True, bidirectional=True)
  )
  (tattention): tattention(
    (dropout): Dropout(p=0.0, inplace=False)
    (softmax): Softmax(dim=-1)
    (linear1): Linear(in_features=600, out_features=600, bias=True)
    (w1): Linear(in_features=600, out_features=600, bias=True)
    (w2): Linear(in_features=600, out_features=600, bias=True)
    (layer_norm): LayerNorm((600,), eps=1e-05, elementwise_affine=True)
    (relu): ReLU(inplace=True)
  )
  (prior_cue_attention): Attention(600, 600, 600, mode='mlp')
  (prior_src_attention): Attention(600, 600, 600, mode='mlp')
  (decoder): RNNDecoder(
    (embedder): Embedder(16840, 200, padding_idx=0)
    (knowledge_attention): Attention(600, 600, 600, mode='mlp')
    (fc_memory): Sequential(
      (0): Linear(in_features=1, out_features=600, bias=True)
      (1): Tanh()
    )
    (select_st): Attention(600, 600, 600, mode='mlp')
    (attention): Attention(600, 600, 600, mode='mlp')
    (rnn): GRU(1400, 600, batch_first=True)
    (fc1): Linear(in_features=600, out_features=600, bias=True)
    (fc2): Linear(in_features=600, out_features=600, bias=True)
    (fc3): Linear(in_features=1200, out_features=1, bias=True)
    (fc4): Linear(in_features=600, out_features=600, bias=True)
    (fc5): Linear(in_features=600, out_features=600, bias=True)
    (fc6): Linear(in_features=1200, out_features=1, bias=True)
    (fc7): Linear(in_features=600, out_features=1, bias=False)
    (tanh): Tanh()
    (sigmoid): Sigmoid()
    (softmax): Softmax(dim=-1)
    (output_layer): Sequential(
      (0): Dropout(p=0.3, inplace=False)
      (1): Linear(in_features=1200, out_features=600, bias=True)
      (2): Linear(in_features=600, out_features=16840, bias=True)
      (3): LogSoftmax(dim=-1)
    )
  )
  (log_softmax): LogSoftmax(dim=-1)
  (softmax): Softmax(dim=-1)
  (sigmoid): Sigmoid()
  (softplus): Softplus(beta=1, threshold=20)
  (bow_output_layer): Sequential(
    (0): Linear(in_features=600, out_features=600, bias=True)
    (1): Tanh()
    (2): Linear(in_features=600, out_features=16840, bias=True)
    (3): LogSoftmax(dim=-1)
  )
  (nll_loss): NLLLoss()
  (kl_loss): KLDivLoss()
)
Number of parameters: 41108682

Training starts ...
KnowledgeSeq2Seq(
  (bridge): Sequential(
    (0): Linear(in_features=1200, out_features=600, bias=True)
    (1): Tanh()
  )
  (knowledge_encoder): RNNEncoder(
    (embedder): Embedder(16840, 200, padding_idx=0)
    (rnn): GRU(200, 300, batch_first=True, bidirectional=True)
  )
  (knowledge_encoder2): RNNEncoder(
    (rnn): GRU(600, 300, batch_first=True, bidirectional=True)
  )
  (src_encoder): RNNEncoder(
    (embedder): Embedder(16840, 200, padding_idx=0)
    (rnn): GRU(200, 300, batch_first=True, bidirectional=True)
  )
  (src_current_encoder): RNNEncoder(
    (embedder): Embedder(16840, 200, padding_idx=0)
    (rnn): GRU(200, 300, batch_first=True, bidirectional=True)
  )
  (src_encoder2): RNNEncoder(
    (rnn): GRU(600, 300, batch_first=True, bidirectional=True)
  )
  (tattention): tattention(
    (dropout): Dropout(p=0.0, inplace=False)
    (softmax): Softmax(dim=-1)
    (linear1): Linear(in_features=600, out_features=600, bias=True)
    (w1): Linear(in_features=600, out_features=600, bias=True)
    (w2): Linear(in_features=600, out_features=600, bias=True)
    (layer_norm): LayerNorm((600,), eps=1e-05, elementwise_affine=True)
    (relu): ReLU(inplace=True)
  )
  (prior_cue_attention): Attention(600, 600, 600, mode='mlp')
  (prior_src_attention): Attention(600, 600, 600, mode='mlp')
  (decoder): RNNDecoder(
    (embedder): Embedder(16840, 200, padding_idx=0)
    (knowledge_attention): Attention(600, 600, 600, mode='mlp')
    (fc_memory): Sequential(
      (0): Linear(in_features=1, out_features=600, bias=True)
      (1): Tanh()
    )
    (select_st): Attention(600, 600, 600, mode='mlp')
    (attention): Attention(600, 600, 600, mode='mlp')
    (rnn): GRU(1400, 600, batch_first=True)
    (fc1): Linear(in_features=600, out_features=600, bias=True)
    (fc2): Linear(in_features=600, out_features=600, bias=True)
    (fc3): Linear(in_features=1200, out_features=1, bias=True)
    (fc4): Linear(in_features=600, out_features=600, bias=True)
    (fc5): Linear(in_features=600, out_features=600, bias=True)
    (fc6): Linear(in_features=1200, out_features=1, bias=True)
    (fc7): Linear(in_features=600, out_features=1, bias=False)
    (tanh): Tanh()
    (sigmoid): Sigmoid()
    (softmax): Softmax(dim=-1)
    (output_layer): Sequential(
      (0): Dropout(p=0.3, inplace=False)
      (1): Linear(in_features=1200, out_features=600, bias=True)
      (2): Linear(in_features=600, out_features=16840, bias=True)
      (3): LogSoftmax(dim=-1)
    )
  )
  (log_softmax): LogSoftmax(dim=-1)
  (softmax): Softmax(dim=-1)
  (sigmoid): Sigmoid()
  (softplus): Softplus(beta=1, threshold=20)
  (bow_output_layer): Sequential(
    (0): Linear(in_features=600, out_features=600, bias=True)
    (1): Tanh()
    (2): Linear(in_features=600, out_features=16840, bias=True)
    (3): LogSoftmax(dim=-1)
  )
  (nll_loss): NLLLoss()
  (kl_loss): KLDivLoss()
)
Number of parameters: 41108682

Training starts ...
KnowledgeSeq2Seq(
  (bridge): Sequential(
    (0): Linear(in_features=1200, out_features=600, bias=True)
    (1): Tanh()
  )
  (knowledge_encoder): RNNEncoder(
    (embedder): Embedder(16840, 200, padding_idx=0)
    (rnn): GRU(200, 300, batch_first=True, bidirectional=True)
  )
  (knowledge_encoder2): RNNEncoder(
    (rnn): GRU(600, 300, batch_first=True, bidirectional=True)
  )
  (src_encoder): RNNEncoder(
    (embedder): Embedder(16840, 200, padding_idx=0)
    (rnn): GRU(200, 300, batch_first=True, bidirectional=True)
  )
  (src_current_encoder): RNNEncoder(
    (embedder): Embedder(16840, 200, padding_idx=0)
    (rnn): GRU(200, 300, batch_first=True, bidirectional=True)
  )
  (src_encoder2): RNNEncoder(
    (rnn): GRU(600, 300, batch_first=True, bidirectional=True)
  )
  (tattention): tattention(
    (dropout): Dropout(p=0.0, inplace=False)
    (softmax): Softmax(dim=-1)
    (linear1): Linear(in_features=600, out_features=600, bias=True)
    (w1): Linear(in_features=600, out_features=600, bias=True)
    (w2): Linear(in_features=600, out_features=600, bias=True)
    (layer_norm): LayerNorm((600,), eps=1e-05, elementwise_affine=True)
    (relu): ReLU(inplace=True)
  )
  (prior_cue_attention): Attention(600, 600, 600, mode='mlp')
  (prior_src_attention): Attention(600, 600, 600, mode='mlp')
  (decoder): RNNDecoder(
    (embedder): Embedder(16840, 200, padding_idx=0)
    (knowledge_attention): Attention(600, 600, 600, mode='mlp')
    (fc_memory): Sequential(
      (0): Linear(in_features=1, out_features=600, bias=True)
      (1): Tanh()
    )
    (select_st): Attention(600, 600, 600, mode='mlp')
    (attention): Attention(600, 600, 600, mode='mlp')
    (rnn): GRU(1400, 600, batch_first=True)
    (fc1): Linear(in_features=600, out_features=600, bias=True)
    (fc2): Linear(in_features=600, out_features=600, bias=True)
    (fc3): Linear(in_features=1200, out_features=1, bias=True)
    (fc4): Linear(in_features=600, out_features=600, bias=True)
    (fc5): Linear(in_features=600, out_features=600, bias=True)
    (fc6): Linear(in_features=1200, out_features=1, bias=True)
    (fc7): Linear(in_features=600, out_features=1, bias=False)
    (tanh): Tanh()
    (sigmoid): Sigmoid()
    (softmax): Softmax(dim=-1)
    (output_layer): Sequential(
      (0): Dropout(p=0.3, inplace=False)
      (1): Linear(in_features=1200, out_features=600, bias=True)
      (2): Linear(in_features=600, out_features=16840, bias=True)
      (3): LogSoftmax(dim=-1)
    )
  )
  (log_softmax): LogSoftmax(dim=-1)
  (softmax): Softmax(dim=-1)
  (sigmoid): Sigmoid()
  (softplus): Softplus(beta=1, threshold=20)
  (bow_output_layer): Sequential(
    (0): Linear(in_features=600, out_features=600, bias=True)
    (1): Tanh()
    (2): Linear(in_features=600, out_features=16840, bias=True)
    (3): LogSoftmax(dim=-1)
  )
  (nll_loss): NLLLoss()
  (kl_loss): KLDivLoss()
)
Number of parameters: 41108682

Training starts ...
KnowledgeSeq2Seq(
  (bridge): Sequential(
    (0): Linear(in_features=1200, out_features=600, bias=True)
    (1): Tanh()
  )
  (knowledge_encoder): RNNEncoder(
    (embedder): Embedder(16840, 200, padding_idx=0)
    (rnn): GRU(200, 300, batch_first=True, bidirectional=True)
  )
  (knowledge_encoder2): RNNEncoder(
    (rnn): GRU(600, 300, batch_first=True, bidirectional=True)
  )
  (src_encoder): RNNEncoder(
    (embedder): Embedder(16840, 200, padding_idx=0)
    (rnn): GRU(200, 300, batch_first=True, bidirectional=True)
  )
  (src_current_encoder): RNNEncoder(
    (embedder): Embedder(16840, 200, padding_idx=0)
    (rnn): GRU(200, 300, batch_first=True, bidirectional=True)
  )
  (src_encoder2): RNNEncoder(
    (rnn): GRU(600, 300, batch_first=True, bidirectional=True)
  )
  (tattention): tattention(
    (dropout): Dropout(p=0.0, inplace=False)
    (softmax): Softmax(dim=-1)
    (linear1): Linear(in_features=600, out_features=600, bias=True)
    (w1): Linear(in_features=600, out_features=600, bias=True)
    (w2): Linear(in_features=600, out_features=600, bias=True)
    (layer_norm): LayerNorm((600,), eps=1e-05, elementwise_affine=True)
    (relu): ReLU(inplace=True)
  )
  (prior_cue_attention): Attention(600, 600, 600, mode='mlp')
  (prior_src_attention): Attention(600, 600, 600, mode='mlp')
  (decoder): RNNDecoder(
    (embedder): Embedder(16840, 200, padding_idx=0)
    (knowledge_attention): Attention(600, 600, 600, mode='mlp')
    (fc_memory): Sequential(
      (0): Linear(in_features=1, out_features=600, bias=True)
      (1): Tanh()
    )
    (select_st): Attention(600, 600, 600, mode='mlp')
    (attention): Attention(600, 600, 600, mode='mlp')
    (rnn): GRU(1400, 600, batch_first=True)
    (fc1): Linear(in_features=600, out_features=600, bias=True)
    (fc2): Linear(in_features=600, out_features=600, bias=True)
    (fc3): Linear(in_features=1200, out_features=1, bias=True)
    (fc4): Linear(in_features=600, out_features=600, bias=True)
    (fc5): Linear(in_features=600, out_features=600, bias=True)
    (fc6): Linear(in_features=1200, out_features=1, bias=True)
    (fc7): Linear(in_features=600, out_features=1, bias=False)
    (tanh): Tanh()
    (sigmoid): Sigmoid()
    (softmax): Softmax(dim=-1)
    (output_layer): Sequential(
      (0): Dropout(p=0.3, inplace=False)
      (1): Linear(in_features=1200, out_features=600, bias=True)
      (2): Linear(in_features=600, out_features=16840, bias=True)
      (3): LogSoftmax(dim=-1)
    )
  )
  (log_softmax): LogSoftmax(dim=-1)
  (softmax): Softmax(dim=-1)
  (sigmoid): Sigmoid()
  (softplus): Softplus(beta=1, threshold=20)
  (bow_output_layer): Sequential(
    (0): Linear(in_features=600, out_features=600, bias=True)
    (1): Tanh()
    (2): Linear(in_features=600, out_features=16840, bias=True)
    (3): LogSoftmax(dim=-1)
  )
  (nll_loss): NLLLoss()
  (kl_loss): KLDivLoss()
)
Number of parameters: 41108682

Training starts ...
KnowledgeSeq2Seq(
  (bridge): Sequential(
    (0): Linear(in_features=1200, out_features=600, bias=True)
    (1): Tanh()
  )
  (knowledge_encoder): RNNEncoder(
    (embedder): Embedder(16840, 200, padding_idx=0)
    (rnn): GRU(200, 300, batch_first=True, bidirectional=True)
  )
  (knowledge_encoder2): RNNEncoder(
    (rnn): GRU(600, 300, batch_first=True, bidirectional=True)
  )
  (src_encoder): RNNEncoder(
    (embedder): Embedder(16840, 200, padding_idx=0)
    (rnn): GRU(200, 300, batch_first=True, bidirectional=True)
  )
  (src_current_encoder): RNNEncoder(
    (embedder): Embedder(16840, 200, padding_idx=0)
    (rnn): GRU(200, 300, batch_first=True, bidirectional=True)
  )
  (src_encoder2): RNNEncoder(
    (rnn): GRU(600, 300, batch_first=True, bidirectional=True)
  )
  (tattention): tattention(
    (dropout): Dropout(p=0.0, inplace=False)
    (softmax): Softmax(dim=-1)
    (linear1): Linear(in_features=600, out_features=600, bias=True)
    (w1): Linear(in_features=600, out_features=600, bias=True)
    (w2): Linear(in_features=600, out_features=600, bias=True)
    (layer_norm): LayerNorm((600,), eps=1e-05, elementwise_affine=True)
    (relu): ReLU(inplace=True)
  )
  (prior_cue_attention): Attention(600, 600, 600, mode='mlp')
  (prior_src_attention): Attention(600, 600, 600, mode='mlp')
  (decoder): RNNDecoder(
    (embedder): Embedder(16840, 200, padding_idx=0)
    (knowledge_attention): Attention(600, 600, 600, mode='mlp')
    (fc_memory): Sequential(
      (0): Linear(in_features=1, out_features=600, bias=True)
      (1): Tanh()
    )
    (select_st): Attention(600, 600, 600, mode='mlp')
    (attention): Attention(600, 600, 600, mode='mlp')
    (rnn): GRU(1400, 600, batch_first=True)
    (fc1): Linear(in_features=600, out_features=600, bias=True)
    (fc2): Linear(in_features=600, out_features=600, bias=True)
    (fc3): Linear(in_features=1200, out_features=1, bias=True)
    (fc4): Linear(in_features=600, out_features=600, bias=True)
    (fc5): Linear(in_features=600, out_features=600, bias=True)
    (fc6): Linear(in_features=1200, out_features=1, bias=True)
    (fc7): Linear(in_features=600, out_features=1, bias=False)
    (tanh): Tanh()
    (sigmoid): Sigmoid()
    (softmax): Softmax(dim=-1)
    (output_layer): Sequential(
      (0): Dropout(p=0.3, inplace=False)
      (1): Linear(in_features=1200, out_features=600, bias=True)
      (2): Linear(in_features=600, out_features=16840, bias=True)
      (3): LogSoftmax(dim=-1)
    )
  )
  (log_softmax): LogSoftmax(dim=-1)
  (softmax): Softmax(dim=-1)
  (sigmoid): Sigmoid()
  (softplus): Softplus(beta=1, threshold=20)
  (bow_output_layer): Sequential(
    (0): Linear(in_features=600, out_features=600, bias=True)
    (1): Tanh()
    (2): Linear(in_features=600, out_features=16840, bias=True)
    (3): LogSoftmax(dim=-1)
  )
  (nll_loss): NLLLoss()
  (kl_loss): KLDivLoss()
)
Number of parameters: 41108682

Training starts ...
KnowledgeSeq2Seq(
  (bridge): Sequential(
    (0): Linear(in_features=1200, out_features=600, bias=True)
    (1): Tanh()
  )
  (knowledge_encoder): RNNEncoder(
    (embedder): Embedder(16840, 200, padding_idx=0)
    (rnn): GRU(200, 300, batch_first=True, bidirectional=True)
  )
  (knowledge_encoder2): RNNEncoder(
    (rnn): GRU(600, 300, batch_first=True, bidirectional=True)
  )
  (src_encoder): RNNEncoder(
    (embedder): Embedder(16840, 200, padding_idx=0)
    (rnn): GRU(200, 300, batch_first=True, bidirectional=True)
  )
  (src_current_encoder): RNNEncoder(
    (embedder): Embedder(16840, 200, padding_idx=0)
    (rnn): GRU(200, 300, batch_first=True, bidirectional=True)
  )
  (src_encoder2): RNNEncoder(
    (rnn): GRU(600, 300, batch_first=True, bidirectional=True)
  )
  (tattention): tattention(
    (dropout): Dropout(p=0.0, inplace=False)
    (softmax): Softmax(dim=-1)
    (linear1): Linear(in_features=600, out_features=600, bias=True)
    (w1): Linear(in_features=600, out_features=600, bias=True)
    (w2): Linear(in_features=600, out_features=600, bias=True)
    (layer_norm): LayerNorm((600,), eps=1e-05, elementwise_affine=True)
    (relu): ReLU(inplace=True)
  )
  (prior_cue_attention): Attention(600, 600, 600, mode='mlp')
  (prior_src_attention): Attention(600, 600, 600, mode='mlp')
  (decoder): RNNDecoder(
    (embedder): Embedder(16840, 200, padding_idx=0)
    (knowledge_attention): Attention(600, 600, 600, mode='mlp')
    (fc_memory): Sequential(
      (0): Linear(in_features=1, out_features=600, bias=True)
      (1): Tanh()
    )
    (select_st): Attention(600, 600, 600, mode='mlp')
    (attention): Attention(600, 600, 600, mode='mlp')
    (rnn): GRU(1400, 600, batch_first=True)
    (fc1): Linear(in_features=600, out_features=600, bias=True)
    (fc2): Linear(in_features=600, out_features=600, bias=True)
    (fc3): Linear(in_features=1200, out_features=1, bias=True)
    (fc4): Linear(in_features=600, out_features=600, bias=True)
    (fc5): Linear(in_features=600, out_features=600, bias=True)
    (fc6): Linear(in_features=1200, out_features=1, bias=True)
    (fc7): Linear(in_features=600, out_features=1, bias=False)
    (tanh): Tanh()
    (sigmoid): Sigmoid()
    (softmax): Softmax(dim=-1)
    (output_layer): Sequential(
      (0): Dropout(p=0.3, inplace=False)
      (1): Linear(in_features=1200, out_features=600, bias=True)
      (2): Linear(in_features=600, out_features=16840, bias=True)
      (3): LogSoftmax(dim=-1)
    )
  )
  (log_softmax): LogSoftmax(dim=-1)
  (softmax): Softmax(dim=-1)
  (sigmoid): Sigmoid()
  (softplus): Softplus(beta=1, threshold=20)
  (bow_output_layer): Sequential(
    (0): Linear(in_features=600, out_features=600, bias=True)
    (1): Tanh()
    (2): Linear(in_features=600, out_features=16840, bias=True)
    (3): LogSoftmax(dim=-1)
  )
  (nll_loss): NLLLoss()
  (kl_loss): KLDivLoss()
)
Number of parameters: 41108682

Training starts ...
KnowledgeSeq2Seq(
  (bridge): Sequential(
    (0): Linear(in_features=1200, out_features=600, bias=True)
    (1): Tanh()
  )
  (knowledge_encoder): RNNEncoder(
    (embedder): Embedder(16840, 200, padding_idx=0)
    (rnn): GRU(200, 300, batch_first=True, bidirectional=True)
  )
  (knowledge_encoder2): RNNEncoder(
    (rnn): GRU(600, 300, batch_first=True, bidirectional=True)
  )
  (src_encoder): RNNEncoder(
    (embedder): Embedder(16840, 200, padding_idx=0)
    (rnn): GRU(200, 300, batch_first=True, bidirectional=True)
  )
  (src_current_encoder): RNNEncoder(
    (embedder): Embedder(16840, 200, padding_idx=0)
    (rnn): GRU(200, 300, batch_first=True, bidirectional=True)
  )
  (src_encoder2): RNNEncoder(
    (rnn): GRU(600, 300, batch_first=True, bidirectional=True)
  )
  (tattention): tattention(
    (dropout): Dropout(p=0.0, inplace=False)
    (softmax): Softmax(dim=-1)
    (linear1): Linear(in_features=600, out_features=600, bias=True)
    (w1): Linear(in_features=600, out_features=600, bias=True)
    (w2): Linear(in_features=600, out_features=600, bias=True)
    (layer_norm): LayerNorm((600,), eps=1e-05, elementwise_affine=True)
    (relu): ReLU(inplace=True)
  )
  (prior_cue_attention): Attention(600, 600, 600, mode='mlp')
  (prior_src_attention): Attention(600, 600, 600, mode='mlp')
  (decoder): RNNDecoder(
    (embedder): Embedder(16840, 200, padding_idx=0)
    (knowledge_attention): Attention(600, 600, 600, mode='mlp')
    (fc_memory): Sequential(
      (0): Linear(in_features=1, out_features=600, bias=True)
      (1): Tanh()
    )
    (select_st): Attention(600, 600, 600, mode='mlp')
    (attention): Attention(600, 600, 600, mode='mlp')
    (rnn): GRU(1400, 600, batch_first=True)
    (fc1): Linear(in_features=600, out_features=600, bias=True)
    (fc2): Linear(in_features=600, out_features=600, bias=True)
    (fc3): Linear(in_features=1200, out_features=1, bias=True)
    (fc4): Linear(in_features=600, out_features=600, bias=True)
    (fc5): Linear(in_features=600, out_features=600, bias=True)
    (fc6): Linear(in_features=1200, out_features=1, bias=True)
    (fc7): Linear(in_features=600, out_features=1, bias=False)
    (tanh): Tanh()
    (sigmoid): Sigmoid()
    (softmax): Softmax(dim=-1)
    (output_layer): Sequential(
      (0): Dropout(p=0.3, inplace=False)
      (1): Linear(in_features=1200, out_features=600, bias=True)
      (2): Linear(in_features=600, out_features=16840, bias=True)
      (3): LogSoftmax(dim=-1)
    )
  )
  (log_softmax): LogSoftmax(dim=-1)
  (softmax): Softmax(dim=-1)
  (sigmoid): Sigmoid()
  (softplus): Softplus(beta=1, threshold=20)
  (bow_output_layer): Sequential(
    (0): Linear(in_features=600, out_features=600, bias=True)
    (1): Tanh()
    (2): Linear(in_features=600, out_features=16840, bias=True)
    (3): LogSoftmax(dim=-1)
  )
  (nll_loss): NLLLoss()
  (kl_loss): KLDivLoss()
)
Number of parameters: 41108682

Training starts ...
KnowledgeSeq2Seq(
  (bridge): Sequential(
    (0): Linear(in_features=1200, out_features=600, bias=True)
    (1): Tanh()
  )
  (knowledge_encoder): RNNEncoder(
    (embedder): Embedder(16840, 200, padding_idx=0)
    (rnn): GRU(200, 300, batch_first=True, bidirectional=True)
  )
  (knowledge_encoder2): RNNEncoder(
    (rnn): GRU(600, 300, batch_first=True, bidirectional=True)
  )
  (src_encoder): RNNEncoder(
    (embedder): Embedder(16840, 200, padding_idx=0)
    (rnn): GRU(200, 300, batch_first=True, bidirectional=True)
  )
  (src_current_encoder): RNNEncoder(
    (embedder): Embedder(16840, 200, padding_idx=0)
    (rnn): GRU(200, 300, batch_first=True, bidirectional=True)
  )
  (src_encoder2): RNNEncoder(
    (rnn): GRU(600, 300, batch_first=True, bidirectional=True)
  )
  (tattention): tattention(
    (dropout): Dropout(p=0.0, inplace=False)
    (softmax): Softmax(dim=-1)
    (linear1): Linear(in_features=600, out_features=600, bias=True)
    (w1): Linear(in_features=600, out_features=600, bias=True)
    (w2): Linear(in_features=600, out_features=600, bias=True)
    (layer_norm): LayerNorm((600,), eps=1e-05, elementwise_affine=True)
    (relu): ReLU(inplace=True)
  )
  (prior_cue_attention): Attention(600, 600, 600, mode='mlp')
  (prior_src_attention): Attention(600, 600, 600, mode='mlp')
  (decoder): RNNDecoder(
    (embedder): Embedder(16840, 200, padding_idx=0)
    (knowledge_attention): Attention(600, 600, 600, mode='mlp')
    (fc_memory): Sequential(
      (0): Linear(in_features=1, out_features=600, bias=True)
      (1): Tanh()
    )
    (select_st): Attention(600, 600, 600, mode='mlp')
    (attention): Attention(600, 600, 600, mode='mlp')
    (rnn): GRU(1400, 600, batch_first=True)
    (fc1): Linear(in_features=600, out_features=600, bias=True)
    (fc2): Linear(in_features=600, out_features=600, bias=True)
    (fc3): Linear(in_features=1200, out_features=1, bias=True)
    (fc4): Linear(in_features=600, out_features=600, bias=True)
    (fc5): Linear(in_features=600, out_features=600, bias=True)
    (fc6): Linear(in_features=1200, out_features=1, bias=True)
    (fc7): Linear(in_features=600, out_features=1, bias=False)
    (tanh): Tanh()
    (sigmoid): Sigmoid()
    (softmax): Softmax(dim=-1)
    (output_layer): Sequential(
      (0): Dropout(p=0.3, inplace=False)
      (1): Linear(in_features=1200, out_features=600, bias=True)
      (2): Linear(in_features=600, out_features=16840, bias=True)
      (3): LogSoftmax(dim=-1)
    )
  )
  (log_softmax): LogSoftmax(dim=-1)
  (softmax): Softmax(dim=-1)
  (sigmoid): Sigmoid()
  (softplus): Softplus(beta=1, threshold=20)
  (bow_output_layer): Sequential(
    (0): Linear(in_features=600, out_features=600, bias=True)
    (1): Tanh()
    (2): Linear(in_features=600, out_features=16840, bias=True)
    (3): LogSoftmax(dim=-1)
  )
  (nll_loss): NLLLoss()
  (kl_loss): KLDivLoss()
)
Number of parameters: 41108682

Training starts ...
KnowledgeSeq2Seq(
  (bridge): Sequential(
    (0): Linear(in_features=1200, out_features=600, bias=True)
    (1): Tanh()
  )
  (knowledge_encoder): RNNEncoder(
    (embedder): Embedder(16840, 200, padding_idx=0)
    (rnn): GRU(200, 300, batch_first=True, bidirectional=True)
  )
  (knowledge_encoder2): RNNEncoder(
    (rnn): GRU(600, 300, batch_first=True, bidirectional=True)
  )
  (src_encoder): RNNEncoder(
    (embedder): Embedder(16840, 200, padding_idx=0)
    (rnn): GRU(200, 300, batch_first=True, bidirectional=True)
  )
  (src_current_encoder): RNNEncoder(
    (embedder): Embedder(16840, 200, padding_idx=0)
    (rnn): GRU(200, 300, batch_first=True, bidirectional=True)
  )
  (src_encoder2): RNNEncoder(
    (rnn): GRU(600, 300, batch_first=True, bidirectional=True)
  )
  (tattention): tattention(
    (dropout): Dropout(p=0.0, inplace=False)
    (softmax): Softmax(dim=-1)
    (linear1): Linear(in_features=600, out_features=600, bias=True)
    (w1): Linear(in_features=600, out_features=600, bias=True)
    (w2): Linear(in_features=600, out_features=600, bias=True)
    (layer_norm): LayerNorm((600,), eps=1e-05, elementwise_affine=True)
    (relu): ReLU(inplace=True)
  )
  (prior_cue_attention): Attention(600, 600, 600, mode='mlp')
  (prior_src_attention): Attention(600, 600, 600, mode='mlp')
  (decoder): RNNDecoder(
    (embedder): Embedder(16840, 200, padding_idx=0)
    (knowledge_attention): Attention(600, 600, 600, mode='mlp')
    (fc_memory): Sequential(
      (0): Linear(in_features=1, out_features=600, bias=True)
      (1): Tanh()
    )
    (select_st): Attention(600, 600, 600, mode='mlp')
    (attention): Attention(600, 600, 600, mode='mlp')
    (rnn): GRU(1400, 600, batch_first=True)
    (fc1): Linear(in_features=600, out_features=600, bias=True)
    (fc2): Linear(in_features=600, out_features=600, bias=True)
    (fc3): Linear(in_features=1200, out_features=1, bias=True)
    (fc4): Linear(in_features=600, out_features=600, bias=True)
    (fc5): Linear(in_features=600, out_features=600, bias=True)
    (fc6): Linear(in_features=1200, out_features=1, bias=True)
    (fc7): Linear(in_features=600, out_features=1, bias=False)
    (tanh): Tanh()
    (sigmoid): Sigmoid()
    (softmax): Softmax(dim=-1)
    (output_layer): Sequential(
      (0): Dropout(p=0.3, inplace=False)
      (1): Linear(in_features=1200, out_features=600, bias=True)
      (2): Linear(in_features=600, out_features=16840, bias=True)
      (3): LogSoftmax(dim=-1)
    )
  )
  (log_softmax): LogSoftmax(dim=-1)
  (softmax): Softmax(dim=-1)
  (sigmoid): Sigmoid()
  (softplus): Softplus(beta=1, threshold=20)
  (bow_output_layer): Sequential(
    (0): Linear(in_features=600, out_features=600, bias=True)
    (1): Tanh()
    (2): Linear(in_features=600, out_features=16840, bias=True)
    (3): LogSoftmax(dim=-1)
  )
  (nll_loss): NLLLoss()
  (kl_loss): KLDivLoss()
)
Number of parameters: 41108682

Training starts ...
KnowledgeSeq2Seq(
  (bridge): Sequential(
    (0): Linear(in_features=1200, out_features=600, bias=True)
    (1): Tanh()
  )
  (knowledge_encoder): RNNEncoder(
    (embedder): Embedder(16840, 200, padding_idx=0)
    (rnn): GRU(200, 300, batch_first=True, bidirectional=True)
  )
  (knowledge_encoder2): RNNEncoder(
    (rnn): GRU(600, 300, batch_first=True, bidirectional=True)
  )
  (src_encoder): RNNEncoder(
    (embedder): Embedder(16840, 200, padding_idx=0)
    (rnn): GRU(200, 300, batch_first=True, bidirectional=True)
  )
  (src_current_encoder): RNNEncoder(
    (embedder): Embedder(16840, 200, padding_idx=0)
    (rnn): GRU(200, 300, batch_first=True, bidirectional=True)
  )
  (src_encoder2): RNNEncoder(
    (rnn): GRU(600, 300, batch_first=True, bidirectional=True)
  )
  (tattention): tattention(
    (dropout): Dropout(p=0.0, inplace=False)
    (softmax): Softmax(dim=-1)
    (linear1): Linear(in_features=600, out_features=600, bias=True)
    (w1): Linear(in_features=600, out_features=600, bias=True)
    (w2): Linear(in_features=600, out_features=600, bias=True)
    (layer_norm): LayerNorm((600,), eps=1e-05, elementwise_affine=True)
    (relu): ReLU(inplace=True)
  )
  (prior_cue_attention): Attention(600, 600, 600, mode='mlp')
  (prior_src_attention): Attention(600, 600, 600, mode='mlp')
  (decoder): RNNDecoder(
    (embedder): Embedder(16840, 200, padding_idx=0)
    (knowledge_attention): Attention(600, 600, 600, mode='mlp')
    (fc_memory): Sequential(
      (0): Linear(in_features=1, out_features=600, bias=True)
      (1): Tanh()
    )
    (select_st): Attention(600, 600, 600, mode='mlp')
    (attention): Attention(600, 600, 600, mode='mlp')
    (rnn): GRU(1400, 600, batch_first=True)
    (fc1): Linear(in_features=600, out_features=600, bias=True)
    (fc2): Linear(in_features=600, out_features=600, bias=True)
    (fc3): Linear(in_features=1200, out_features=1, bias=True)
    (fc4): Linear(in_features=600, out_features=600, bias=True)
    (fc5): Linear(in_features=600, out_features=600, bias=True)
    (fc6): Linear(in_features=1200, out_features=1, bias=True)
    (fc7): Linear(in_features=600, out_features=1, bias=False)
    (tanh): Tanh()
    (sigmoid): Sigmoid()
    (softmax): Softmax(dim=-1)
    (output_layer): Sequential(
      (0): Dropout(p=0.3, inplace=False)
      (1): Linear(in_features=1200, out_features=600, bias=True)
      (2): Linear(in_features=600, out_features=16840, bias=True)
      (3): LogSoftmax(dim=-1)
    )
  )
  (log_softmax): LogSoftmax(dim=-1)
  (softmax): Softmax(dim=-1)
  (sigmoid): Sigmoid()
  (softplus): Softplus(beta=1, threshold=20)
  (bow_output_layer): Sequential(
    (0): Linear(in_features=600, out_features=600, bias=True)
    (1): Tanh()
    (2): Linear(in_features=600, out_features=16840, bias=True)
    (3): LogSoftmax(dim=-1)
  )
  (nll_loss): NLLLoss()
  (kl_loss): KLDivLoss()
)
Number of parameters: 41108682

Training starts ...
KnowledgeSeq2Seq(
  (bridge): Sequential(
    (0): Linear(in_features=1200, out_features=600, bias=True)
    (1): Tanh()
  )
  (knowledge_encoder): RNNEncoder(
    (embedder): Embedder(16840, 200, padding_idx=0)
    (rnn): GRU(200, 300, batch_first=True, bidirectional=True)
  )
  (knowledge_encoder2): RNNEncoder(
    (rnn): GRU(600, 300, batch_first=True, bidirectional=True)
  )
  (src_encoder): RNNEncoder(
    (embedder): Embedder(16840, 200, padding_idx=0)
    (rnn): GRU(200, 300, batch_first=True, bidirectional=True)
  )
  (src_current_encoder): RNNEncoder(
    (embedder): Embedder(16840, 200, padding_idx=0)
    (rnn): GRU(200, 300, batch_first=True, bidirectional=True)
  )
  (src_encoder2): RNNEncoder(
    (rnn): GRU(600, 300, batch_first=True, bidirectional=True)
  )
  (tattention): tattention(
    (dropout): Dropout(p=0.0, inplace=False)
    (softmax): Softmax(dim=-1)
    (linear1): Linear(in_features=600, out_features=600, bias=True)
    (w1): Linear(in_features=600, out_features=600, bias=True)
    (w2): Linear(in_features=600, out_features=600, bias=True)
    (layer_norm): LayerNorm((600,), eps=1e-05, elementwise_affine=True)
    (relu): ReLU(inplace=True)
  )
  (prior_cue_attention): Attention(600, 600, 600, mode='mlp')
  (prior_src_attention): Attention(600, 600, 600, mode='mlp')
  (decoder): RNNDecoder(
    (embedder): Embedder(16840, 200, padding_idx=0)
    (knowledge_attention): Attention(600, 600, 600, mode='mlp')
    (fc_memory): Sequential(
      (0): Linear(in_features=1, out_features=600, bias=True)
      (1): Tanh()
    )
    (select_st): Attention(600, 600, 600, mode='mlp')
    (attention): Attention(600, 600, 600, mode='mlp')
    (rnn): GRU(1400, 600, batch_first=True)
    (fc1): Linear(in_features=600, out_features=600, bias=True)
    (fc2): Linear(in_features=600, out_features=600, bias=True)
    (fc3): Linear(in_features=1200, out_features=1, bias=True)
    (fc4): Linear(in_features=600, out_features=600, bias=True)
    (fc5): Linear(in_features=600, out_features=600, bias=True)
    (fc6): Linear(in_features=1200, out_features=1, bias=True)
    (fc7): Linear(in_features=600, out_features=1, bias=False)
    (tanh): Tanh()
    (sigmoid): Sigmoid()
    (softmax): Softmax(dim=-1)
    (output_layer): Sequential(
      (0): Dropout(p=0.3, inplace=False)
      (1): Linear(in_features=1200, out_features=600, bias=True)
      (2): Linear(in_features=600, out_features=16840, bias=True)
      (3): LogSoftmax(dim=-1)
    )
  )
  (log_softmax): LogSoftmax(dim=-1)
  (softmax): Softmax(dim=-1)
  (sigmoid): Sigmoid()
  (softplus): Softplus(beta=1, threshold=20)
  (bow_output_layer): Sequential(
    (0): Linear(in_features=600, out_features=600, bias=True)
    (1): Tanh()
    (2): Linear(in_features=600, out_features=16840, bias=True)
    (3): LogSoftmax(dim=-1)
  )
  (nll_loss): NLLLoss()
  (kl_loss): KLDivLoss()
)
Number of parameters: 41108682

Training starts ...
KnowledgeSeq2Seq(
  (bridge): Sequential(
    (0): Linear(in_features=1200, out_features=600, bias=True)
    (1): Tanh()
  )
  (knowledge_encoder): RNNEncoder(
    (embedder): Embedder(16840, 200, padding_idx=0)
    (rnn): GRU(200, 300, batch_first=True, bidirectional=True)
  )
  (knowledge_encoder2): RNNEncoder(
    (rnn): GRU(600, 300, batch_first=True, bidirectional=True)
  )
  (src_encoder): RNNEncoder(
    (embedder): Embedder(16840, 200, padding_idx=0)
    (rnn): GRU(200, 300, batch_first=True, bidirectional=True)
  )
  (src_current_encoder): RNNEncoder(
    (embedder): Embedder(16840, 200, padding_idx=0)
    (rnn): GRU(200, 300, batch_first=True, bidirectional=True)
  )
  (src_encoder2): RNNEncoder(
    (rnn): GRU(600, 300, batch_first=True, bidirectional=True)
  )
  (tattention): tattention(
    (dropout): Dropout(p=0.0, inplace=False)
    (softmax): Softmax(dim=-1)
    (linear1): Linear(in_features=600, out_features=600, bias=True)
    (w1): Linear(in_features=600, out_features=600, bias=True)
    (w2): Linear(in_features=600, out_features=600, bias=True)
    (layer_norm): LayerNorm((600,), eps=1e-05, elementwise_affine=True)
    (relu): ReLU(inplace=True)
  )
  (prior_cue_attention): Attention(600, 600, 600, mode='mlp')
  (prior_src_attention): Attention(600, 600, 600, mode='mlp')
  (decoder): RNNDecoder(
    (embedder): Embedder(16840, 200, padding_idx=0)
    (knowledge_attention): Attention(600, 600, 600, mode='mlp')
    (fc_memory): Sequential(
      (0): Linear(in_features=1, out_features=600, bias=True)
      (1): Tanh()
    )
    (select_st): Attention(600, 600, 600, mode='mlp')
    (attention): Attention(600, 600, 600, mode='mlp')
    (rnn): GRU(1400, 600, batch_first=True)
    (fc1): Linear(in_features=600, out_features=600, bias=True)
    (fc2): Linear(in_features=600, out_features=600, bias=True)
    (fc3): Linear(in_features=1200, out_features=1, bias=True)
    (fc4): Linear(in_features=600, out_features=600, bias=True)
    (fc5): Linear(in_features=600, out_features=600, bias=True)
    (fc6): Linear(in_features=1200, out_features=1, bias=True)
    (fc7): Linear(in_features=600, out_features=1, bias=False)
    (tanh): Tanh()
    (sigmoid): Sigmoid()
    (softmax): Softmax(dim=-1)
    (output_layer): Sequential(
      (0): Dropout(p=0.3, inplace=False)
      (1): Linear(in_features=1200, out_features=600, bias=True)
      (2): Linear(in_features=600, out_features=16840, bias=True)
      (3): LogSoftmax(dim=-1)
    )
  )
  (log_softmax): LogSoftmax(dim=-1)
  (softmax): Softmax(dim=-1)
  (sigmoid): Sigmoid()
  (softplus): Softplus(beta=1, threshold=20)
  (bow_output_layer): Sequential(
    (0): Linear(in_features=600, out_features=600, bias=True)
    (1): Tanh()
    (2): Linear(in_features=600, out_features=16840, bias=True)
    (3): LogSoftmax(dim=-1)
  )
  (nll_loss): NLLLoss()
  (kl_loss): KLDivLoss()
)
Number of parameters: 41108682

Training starts ...
KnowledgeSeq2Seq(
  (bridge): Sequential(
    (0): Linear(in_features=1200, out_features=600, bias=True)
    (1): Tanh()
  )
  (knowledge_encoder): RNNEncoder(
    (embedder): Embedder(16840, 200, padding_idx=0)
    (rnn): GRU(200, 300, batch_first=True, bidirectional=True)
  )
  (knowledge_encoder2): RNNEncoder(
    (rnn): GRU(600, 300, batch_first=True, bidirectional=True)
  )
  (src_encoder): RNNEncoder(
    (embedder): Embedder(16840, 200, padding_idx=0)
    (rnn): GRU(200, 300, batch_first=True, bidirectional=True)
  )
  (src_current_encoder): RNNEncoder(
    (embedder): Embedder(16840, 200, padding_idx=0)
    (rnn): GRU(200, 300, batch_first=True, bidirectional=True)
  )
  (src_encoder2): RNNEncoder(
    (rnn): GRU(600, 300, batch_first=True, bidirectional=True)
  )
  (tattention): tattention(
    (dropout): Dropout(p=0.0, inplace=False)
    (softmax): Softmax(dim=-1)
    (linear1): Linear(in_features=600, out_features=600, bias=True)
    (w1): Linear(in_features=600, out_features=600, bias=True)
    (w2): Linear(in_features=600, out_features=600, bias=True)
    (layer_norm): LayerNorm((600,), eps=1e-05, elementwise_affine=True)
    (relu): ReLU(inplace=True)
  )
  (prior_cue_attention): Attention(600, 600, 600, mode='mlp')
  (prior_src_attention): Attention(600, 600, 600, mode='mlp')
  (decoder): RNNDecoder(
    (embedder): Embedder(16840, 200, padding_idx=0)
    (knowledge_attention): Attention(600, 600, 600, mode='mlp')
    (fc_memory): Sequential(
      (0): Linear(in_features=1, out_features=600, bias=True)
      (1): Tanh()
    )
    (select_st): Attention(600, 600, 600, mode='mlp')
    (attention): Attention(600, 600, 600, mode='mlp')
    (rnn): GRU(1400, 600, batch_first=True)
    (fc1): Linear(in_features=600, out_features=600, bias=True)
    (fc2): Linear(in_features=600, out_features=600, bias=True)
    (fc3): Linear(in_features=1200, out_features=1, bias=True)
    (fc4): Linear(in_features=600, out_features=600, bias=True)
    (fc5): Linear(in_features=600, out_features=600, bias=True)
    (fc6): Linear(in_features=1200, out_features=1, bias=True)
    (fc7): Linear(in_features=600, out_features=1, bias=False)
    (tanh): Tanh()
    (sigmoid): Sigmoid()
    (softmax): Softmax(dim=-1)
    (output_layer): Sequential(
      (0): Dropout(p=0.3, inplace=False)
      (1): Linear(in_features=1200, out_features=600, bias=True)
      (2): Linear(in_features=600, out_features=16840, bias=True)
      (3): LogSoftmax(dim=-1)
    )
  )
  (log_softmax): LogSoftmax(dim=-1)
  (softmax): Softmax(dim=-1)
  (sigmoid): Sigmoid()
  (softplus): Softplus(beta=1, threshold=20)
  (bow_output_layer): Sequential(
    (0): Linear(in_features=600, out_features=600, bias=True)
    (1): Tanh()
    (2): Linear(in_features=600, out_features=16840, bias=True)
    (3): LogSoftmax(dim=-1)
  )
  (nll_loss): NLLLoss()
  (kl_loss): KLDivLoss()
)
Number of parameters: 41108682

Training starts ...
KnowledgeSeq2Seq(
  (bridge): Sequential(
    (0): Linear(in_features=1200, out_features=600, bias=True)
    (1): Tanh()
  )
  (knowledge_encoder): RNNEncoder(
    (embedder): Embedder(16840, 200, padding_idx=0)
    (rnn): GRU(200, 300, batch_first=True, bidirectional=True)
  )
  (knowledge_encoder2): RNNEncoder(
    (rnn): GRU(600, 300, batch_first=True, bidirectional=True)
  )
  (src_encoder): RNNEncoder(
    (embedder): Embedder(16840, 200, padding_idx=0)
    (rnn): GRU(200, 300, batch_first=True, bidirectional=True)
  )
  (src_current_encoder): RNNEncoder(
    (embedder): Embedder(16840, 200, padding_idx=0)
    (rnn): GRU(200, 300, batch_first=True, bidirectional=True)
  )
  (src_encoder2): RNNEncoder(
    (rnn): GRU(600, 300, batch_first=True, bidirectional=True)
  )
  (tattention): tattention(
    (dropout): Dropout(p=0.0, inplace=False)
    (softmax): Softmax(dim=-1)
    (linear1): Linear(in_features=600, out_features=600, bias=True)
    (w1): Linear(in_features=600, out_features=600, bias=True)
    (w2): Linear(in_features=600, out_features=600, bias=True)
    (layer_norm): LayerNorm((600,), eps=1e-05, elementwise_affine=True)
    (relu): ReLU(inplace=True)
  )
  (prior_cue_attention): Attention(600, 600, 600, mode='mlp')
  (prior_src_attention): Attention(600, 600, 600, mode='mlp')
  (decoder): RNNDecoder(
    (embedder): Embedder(16840, 200, padding_idx=0)
    (knowledge_attention): Attention(600, 600, 600, mode='mlp')
    (fc_memory): Sequential(
      (0): Linear(in_features=1, out_features=600, bias=True)
      (1): Tanh()
    )
    (select_st): Attention(600, 600, 600, mode='mlp')
    (attention): Attention(600, 600, 600, mode='mlp')
    (rnn): GRU(1400, 600, batch_first=True)
    (fc1): Linear(in_features=600, out_features=600, bias=True)
    (fc2): Linear(in_features=600, out_features=600, bias=True)
    (fc3): Linear(in_features=1200, out_features=1, bias=True)
    (fc4): Linear(in_features=600, out_features=600, bias=True)
    (fc5): Linear(in_features=600, out_features=600, bias=True)
    (fc6): Linear(in_features=1200, out_features=1, bias=True)
    (fc7): Linear(in_features=600, out_features=1, bias=False)
    (tanh): Tanh()
    (sigmoid): Sigmoid()
    (softmax): Softmax(dim=-1)
    (output_layer): Sequential(
      (0): Dropout(p=0.3, inplace=False)
      (1): Linear(in_features=1200, out_features=600, bias=True)
      (2): Linear(in_features=600, out_features=16840, bias=True)
      (3): LogSoftmax(dim=-1)
    )
  )
  (log_softmax): LogSoftmax(dim=-1)
  (softmax): Softmax(dim=-1)
  (sigmoid): Sigmoid()
  (softplus): Softplus(beta=1, threshold=20)
  (bow_output_layer): Sequential(
    (0): Linear(in_features=600, out_features=600, bias=True)
    (1): Tanh()
    (2): Linear(in_features=600, out_features=16840, bias=True)
    (3): LogSoftmax(dim=-1)
  )
  (nll_loss): NLLLoss()
  (kl_loss): KLDivLoss()
)
Number of parameters: 41108682

Training starts ...
KnowledgeSeq2Seq(
  (bridge): Sequential(
    (0): Linear(in_features=1200, out_features=600, bias=True)
    (1): Tanh()
  )
  (knowledge_encoder): RNNEncoder(
    (embedder): Embedder(16840, 200, padding_idx=0)
    (rnn): GRU(200, 300, batch_first=True, bidirectional=True)
  )
  (knowledge_encoder2): RNNEncoder(
    (rnn): GRU(600, 300, batch_first=True, bidirectional=True)
  )
  (src_encoder): RNNEncoder(
    (embedder): Embedder(16840, 200, padding_idx=0)
    (rnn): GRU(200, 300, batch_first=True, bidirectional=True)
  )
  (src_current_encoder): RNNEncoder(
    (embedder): Embedder(16840, 200, padding_idx=0)
    (rnn): GRU(200, 300, batch_first=True, bidirectional=True)
  )
  (src_encoder2): RNNEncoder(
    (rnn): GRU(600, 300, batch_first=True, bidirectional=True)
  )
  (tattention): tattention(
    (dropout): Dropout(p=0.0, inplace=False)
    (softmax): Softmax(dim=-1)
    (linear1): Linear(in_features=600, out_features=600, bias=True)
    (w1): Linear(in_features=600, out_features=600, bias=True)
    (w2): Linear(in_features=600, out_features=600, bias=True)
    (layer_norm): LayerNorm((600,), eps=1e-05, elementwise_affine=True)
    (relu): ReLU(inplace=True)
  )
  (prior_cue_attention): Attention(600, 600, 600, mode='mlp')
  (prior_src_attention): Attention(600, 600, 600, mode='mlp')
  (decoder): RNNDecoder(
    (embedder): Embedder(16840, 200, padding_idx=0)
    (knowledge_attention): Attention(600, 600, 600, mode='mlp')
    (fc_memory): Sequential(
      (0): Linear(in_features=1, out_features=600, bias=True)
      (1): Tanh()
    )
    (select_st): Attention(600, 600, 600, mode='mlp')
    (attention): Attention(600, 600, 600, mode='mlp')
    (rnn): GRU(1400, 600, batch_first=True)
    (fc1): Linear(in_features=600, out_features=600, bias=True)
    (fc2): Linear(in_features=600, out_features=600, bias=True)
    (fc3): Linear(in_features=1200, out_features=1, bias=True)
    (fc4): Linear(in_features=600, out_features=600, bias=True)
    (fc5): Linear(in_features=600, out_features=600, bias=True)
    (fc6): Linear(in_features=1200, out_features=1, bias=True)
    (fc7): Linear(in_features=600, out_features=1, bias=False)
    (tanh): Tanh()
    (sigmoid): Sigmoid()
    (softmax): Softmax(dim=-1)
    (output_layer): Sequential(
      (0): Dropout(p=0.3, inplace=False)
      (1): Linear(in_features=1200, out_features=600, bias=True)
      (2): Linear(in_features=600, out_features=16840, bias=True)
      (3): LogSoftmax(dim=-1)
    )
  )
  (log_softmax): LogSoftmax(dim=-1)
  (softmax): Softmax(dim=-1)
  (sigmoid): Sigmoid()
  (softplus): Softplus(beta=1, threshold=20)
  (bow_output_layer): Sequential(
    (0): Linear(in_features=600, out_features=600, bias=True)
    (1): Tanh()
    (2): Linear(in_features=600, out_features=16840, bias=True)
    (3): LogSoftmax(dim=-1)
  )
  (nll_loss): NLLLoss()
  (kl_loss): KLDivLoss()
)
Number of parameters: 41108682

Training starts ...
KnowledgeSeq2Seq(
  (bridge): Sequential(
    (0): Linear(in_features=1200, out_features=600, bias=True)
    (1): Tanh()
  )
  (knowledge_encoder): RNNEncoder(
    (embedder): Embedder(16840, 200, padding_idx=0)
    (rnn): GRU(200, 300, batch_first=True, bidirectional=True)
  )
  (knowledge_encoder2): RNNEncoder(
    (rnn): GRU(600, 300, batch_first=True, bidirectional=True)
  )
  (src_encoder): RNNEncoder(
    (embedder): Embedder(16840, 200, padding_idx=0)
    (rnn): GRU(200, 300, batch_first=True, bidirectional=True)
  )
  (src_current_encoder): RNNEncoder(
    (embedder): Embedder(16840, 200, padding_idx=0)
    (rnn): GRU(200, 300, batch_first=True, bidirectional=True)
  )
  (src_encoder2): RNNEncoder(
    (rnn): GRU(600, 300, batch_first=True, bidirectional=True)
  )
  (tattention): tattention(
    (dropout): Dropout(p=0.0, inplace=False)
    (softmax): Softmax(dim=-1)
    (linear1): Linear(in_features=600, out_features=600, bias=True)
    (w1): Linear(in_features=600, out_features=600, bias=True)
    (w2): Linear(in_features=600, out_features=600, bias=True)
    (layer_norm): LayerNorm((600,), eps=1e-05, elementwise_affine=True)
    (relu): ReLU(inplace=True)
  )
  (prior_cue_attention): Attention(600, 600, 600, mode='mlp')
  (prior_src_attention): Attention(600, 600, 600, mode='mlp')
  (decoder): RNNDecoder(
    (embedder): Embedder(16840, 200, padding_idx=0)
    (knowledge_attention): Attention(600, 600, 600, mode='mlp')
    (fc_memory): Sequential(
      (0): Linear(in_features=1, out_features=600, bias=True)
      (1): Tanh()
    )
    (select_st): Attention(600, 600, 600, mode='mlp')
    (attention): Attention(600, 600, 600, mode='mlp')
    (rnn): GRU(1400, 600, batch_first=True)
    (fc1): Linear(in_features=600, out_features=600, bias=True)
    (fc2): Linear(in_features=600, out_features=600, bias=True)
    (fc3): Linear(in_features=1200, out_features=1, bias=True)
    (fc4): Linear(in_features=600, out_features=600, bias=True)
    (fc5): Linear(in_features=600, out_features=600, bias=True)
    (fc6): Linear(in_features=1200, out_features=1, bias=True)
    (fc7): Linear(in_features=600, out_features=1, bias=False)
    (tanh): Tanh()
    (sigmoid): Sigmoid()
    (softmax): Softmax(dim=-1)
    (output_layer): Sequential(
      (0): Dropout(p=0.3, inplace=False)
      (1): Linear(in_features=1200, out_features=600, bias=True)
      (2): Linear(in_features=600, out_features=16840, bias=True)
      (3): LogSoftmax(dim=-1)
    )
  )
  (log_softmax): LogSoftmax(dim=-1)
  (softmax): Softmax(dim=-1)
  (sigmoid): Sigmoid()
  (softplus): Softplus(beta=1, threshold=20)
  (bow_output_layer): Sequential(
    (0): Linear(in_features=600, out_features=600, bias=True)
    (1): Tanh()
    (2): Linear(in_features=600, out_features=16840, bias=True)
    (3): LogSoftmax(dim=-1)
  )
  (nll_loss): NLLLoss()
  (kl_loss): KLDivLoss()
)
Number of parameters: 41108682

Training starts ...
KnowledgeSeq2Seq(
  (bridge): Sequential(
    (0): Linear(in_features=1200, out_features=600, bias=True)
    (1): Tanh()
  )
  (knowledge_encoder): RNNEncoder(
    (embedder): Embedder(16840, 200, padding_idx=0)
    (rnn): GRU(200, 300, batch_first=True, bidirectional=True)
  )
  (knowledge_encoder2): RNNEncoder(
    (rnn): GRU(600, 300, batch_first=True, bidirectional=True)
  )
  (src_encoder): RNNEncoder(
    (embedder): Embedder(16840, 200, padding_idx=0)
    (rnn): GRU(200, 300, batch_first=True, bidirectional=True)
  )
  (src_current_encoder): RNNEncoder(
    (embedder): Embedder(16840, 200, padding_idx=0)
    (rnn): GRU(200, 300, batch_first=True, bidirectional=True)
  )
  (src_encoder2): RNNEncoder(
    (rnn): GRU(600, 300, batch_first=True, bidirectional=True)
  )
  (tattention): tattention(
    (dropout): Dropout(p=0.0, inplace=False)
    (softmax): Softmax(dim=-1)
    (linear1): Linear(in_features=600, out_features=600, bias=True)
    (w1): Linear(in_features=600, out_features=600, bias=True)
    (w2): Linear(in_features=600, out_features=600, bias=True)
    (layer_norm): LayerNorm((600,), eps=1e-05, elementwise_affine=True)
    (relu): ReLU(inplace=True)
  )
  (prior_cue_attention): Attention(600, 600, 600, mode='mlp')
  (prior_src_attention): Attention(600, 600, 600, mode='mlp')
  (decoder): RNNDecoder(
    (embedder): Embedder(16840, 200, padding_idx=0)
    (knowledge_attention): Attention(600, 600, 600, mode='mlp')
    (fc_memory): Sequential(
      (0): Linear(in_features=1, out_features=600, bias=True)
      (1): Tanh()
    )
    (select_st): Attention(600, 600, 600, mode='mlp')
    (attention): Attention(600, 600, 600, mode='mlp')
    (rnn): GRU(1400, 600, batch_first=True)
    (fc1): Linear(in_features=600, out_features=600, bias=True)
    (fc2): Linear(in_features=600, out_features=600, bias=True)
    (fc3): Linear(in_features=1200, out_features=1, bias=True)
    (fc4): Linear(in_features=600, out_features=600, bias=True)
    (fc5): Linear(in_features=600, out_features=600, bias=True)
    (fc6): Linear(in_features=1200, out_features=1, bias=True)
    (fc7): Linear(in_features=600, out_features=1, bias=False)
    (tanh): Tanh()
    (sigmoid): Sigmoid()
    (softmax): Softmax(dim=-1)
    (output_layer): Sequential(
      (0): Dropout(p=0.3, inplace=False)
      (1): Linear(in_features=1200, out_features=600, bias=True)
      (2): Linear(in_features=600, out_features=16840, bias=True)
      (3): LogSoftmax(dim=-1)
    )
  )
  (log_softmax): LogSoftmax(dim=-1)
  (softmax): Softmax(dim=-1)
  (sigmoid): Sigmoid()
  (softplus): Softplus(beta=1, threshold=20)
  (bow_output_layer): Sequential(
    (0): Linear(in_features=600, out_features=600, bias=True)
    (1): Tanh()
    (2): Linear(in_features=600, out_features=16840, bias=True)
    (3): LogSoftmax(dim=-1)
  )
  (nll_loss): NLLLoss()
  (kl_loss): KLDivLoss()
)
Number of parameters: 41108682

Training starts ...
KnowledgeSeq2Seq(
  (bridge): Sequential(
    (0): Linear(in_features=1200, out_features=600, bias=True)
    (1): Tanh()
  )
  (knowledge_encoder): RNNEncoder(
    (embedder): Embedder(16840, 200, padding_idx=0)
    (rnn): GRU(200, 300, batch_first=True, bidirectional=True)
  )
  (knowledge_encoder2): RNNEncoder(
    (rnn): GRU(600, 300, batch_first=True, bidirectional=True)
  )
  (src_encoder): RNNEncoder(
    (embedder): Embedder(16840, 200, padding_idx=0)
    (rnn): GRU(200, 300, batch_first=True, bidirectional=True)
  )
  (src_current_encoder): RNNEncoder(
    (embedder): Embedder(16840, 200, padding_idx=0)
    (rnn): GRU(200, 300, batch_first=True, bidirectional=True)
  )
  (src_encoder2): RNNEncoder(
    (rnn): GRU(600, 300, batch_first=True, bidirectional=True)
  )
  (tattention): tattention(
    (dropout): Dropout(p=0.0, inplace=False)
    (softmax): Softmax(dim=-1)
    (linear1): Linear(in_features=600, out_features=600, bias=True)
    (w1): Linear(in_features=600, out_features=600, bias=True)
    (w2): Linear(in_features=600, out_features=600, bias=True)
    (layer_norm): LayerNorm((600,), eps=1e-05, elementwise_affine=True)
    (relu): ReLU(inplace=True)
  )
  (prior_cue_attention): Attention(600, 600, 600, mode='mlp')
  (prior_src_attention): Attention(600, 600, 600, mode='mlp')
  (decoder): RNNDecoder(
    (embedder): Embedder(16840, 200, padding_idx=0)
    (knowledge_attention): Attention(600, 600, 600, mode='mlp')
    (fc_memory): Sequential(
      (0): Linear(in_features=1, out_features=600, bias=True)
      (1): Tanh()
    )
    (select_st): Attention(600, 600, 600, mode='mlp')
    (attention): Attention(600, 600, 600, mode='mlp')
    (rnn): GRU(1400, 600, batch_first=True)
    (fc1): Linear(in_features=600, out_features=600, bias=True)
    (fc2): Linear(in_features=600, out_features=600, bias=True)
    (fc3): Linear(in_features=1200, out_features=1, bias=True)
    (fc4): Linear(in_features=600, out_features=600, bias=True)
    (fc5): Linear(in_features=600, out_features=600, bias=True)
    (fc6): Linear(in_features=1200, out_features=1, bias=True)
    (fc7): Linear(in_features=600, out_features=1, bias=False)
    (tanh): Tanh()
    (sigmoid): Sigmoid()
    (softmax): Softmax(dim=-1)
    (output_layer): Sequential(
      (0): Dropout(p=0.3, inplace=False)
      (1): Linear(in_features=1200, out_features=600, bias=True)
      (2): Linear(in_features=600, out_features=16840, bias=True)
      (3): LogSoftmax(dim=-1)
    )
  )
  (log_softmax): LogSoftmax(dim=-1)
  (softmax): Softmax(dim=-1)
  (sigmoid): Sigmoid()
  (softplus): Softplus(beta=1, threshold=20)
  (bow_output_layer): Sequential(
    (0): Linear(in_features=600, out_features=600, bias=True)
    (1): Tanh()
    (2): Linear(in_features=600, out_features=16840, bias=True)
    (3): LogSoftmax(dim=-1)
  )
  (nll_loss): NLLLoss()
  (kl_loss): KLDivLoss()
)
Number of parameters: 41108682

Training starts ...
KnowledgeSeq2Seq(
  (bridge): Sequential(
    (0): Linear(in_features=1200, out_features=600, bias=True)
    (1): Tanh()
  )
  (knowledge_encoder): RNNEncoder(
    (embedder): Embedder(16840, 200, padding_idx=0)
    (rnn): GRU(200, 300, batch_first=True, bidirectional=True)
  )
  (knowledge_encoder2): RNNEncoder(
    (rnn): GRU(600, 300, batch_first=True, bidirectional=True)
  )
  (src_encoder): RNNEncoder(
    (embedder): Embedder(16840, 200, padding_idx=0)
    (rnn): GRU(200, 300, batch_first=True, bidirectional=True)
  )
  (src_current_encoder): RNNEncoder(
    (embedder): Embedder(16840, 200, padding_idx=0)
    (rnn): GRU(200, 300, batch_first=True, bidirectional=True)
  )
  (src_encoder2): RNNEncoder(
    (rnn): GRU(600, 300, batch_first=True, bidirectional=True)
  )
  (tattention): tattention(
    (dropout): Dropout(p=0.0, inplace=False)
    (softmax): Softmax(dim=-1)
    (linear1): Linear(in_features=600, out_features=600, bias=True)
    (w1): Linear(in_features=600, out_features=600, bias=True)
    (w2): Linear(in_features=600, out_features=600, bias=True)
    (layer_norm): LayerNorm((600,), eps=1e-05, elementwise_affine=True)
    (relu): ReLU(inplace=True)
  )
  (prior_cue_attention): Attention(600, 600, 600, mode='mlp')
  (prior_src_attention): Attention(600, 600, 600, mode='mlp')
  (decoder): RNNDecoder(
    (embedder): Embedder(16840, 200, padding_idx=0)
    (knowledge_attention): Attention(600, 600, 600, mode='mlp')
    (fc_memory): Sequential(
      (0): Linear(in_features=1, out_features=600, bias=True)
      (1): Tanh()
    )
    (select_st): Attention(600, 600, 600, mode='mlp')
    (attention): Attention(600, 600, 600, mode='mlp')
    (rnn): GRU(1400, 600, batch_first=True)
    (fc1): Linear(in_features=600, out_features=600, bias=True)
    (fc2): Linear(in_features=600, out_features=600, bias=True)
    (fc3): Linear(in_features=1200, out_features=1, bias=True)
    (fc4): Linear(in_features=600, out_features=600, bias=True)
    (fc5): Linear(in_features=600, out_features=600, bias=True)
    (fc6): Linear(in_features=1200, out_features=1, bias=True)
    (fc7): Linear(in_features=600, out_features=1, bias=False)
    (tanh): Tanh()
    (sigmoid): Sigmoid()
    (softmax): Softmax(dim=-1)
    (output_layer): Sequential(
      (0): Dropout(p=0.3, inplace=False)
      (1): Linear(in_features=1200, out_features=600, bias=True)
      (2): Linear(in_features=600, out_features=16840, bias=True)
      (3): LogSoftmax(dim=-1)
    )
  )
  (log_softmax): LogSoftmax(dim=-1)
  (softmax): Softmax(dim=-1)
  (sigmoid): Sigmoid()
  (softplus): Softplus(beta=1, threshold=20)
  (bow_output_layer): Sequential(
    (0): Linear(in_features=600, out_features=600, bias=True)
    (1): Tanh()
    (2): Linear(in_features=600, out_features=16840, bias=True)
    (3): LogSoftmax(dim=-1)
  )
  (nll_loss): NLLLoss()
  (kl_loss): KLDivLoss()
)
Number of parameters: 41108682

Training starts ...
KnowledgeSeq2Seq(
  (bridge): Sequential(
    (0): Linear(in_features=1200, out_features=600, bias=True)
    (1): Tanh()
  )
  (knowledge_encoder): RNNEncoder(
    (embedder): Embedder(16840, 200, padding_idx=0)
    (rnn): GRU(200, 300, batch_first=True, bidirectional=True)
  )
  (knowledge_encoder2): RNNEncoder(
    (rnn): GRU(600, 300, batch_first=True, bidirectional=True)
  )
  (src_encoder): RNNEncoder(
    (embedder): Embedder(16840, 200, padding_idx=0)
    (rnn): GRU(200, 300, batch_first=True, bidirectional=True)
  )
  (src_current_encoder): RNNEncoder(
    (embedder): Embedder(16840, 200, padding_idx=0)
    (rnn): GRU(200, 300, batch_first=True, bidirectional=True)
  )
  (src_encoder2): RNNEncoder(
    (rnn): GRU(600, 300, batch_first=True, bidirectional=True)
  )
  (tattention): tattention(
    (dropout): Dropout(p=0.0, inplace=False)
    (softmax): Softmax(dim=-1)
    (linear1): Linear(in_features=600, out_features=600, bias=True)
    (w1): Linear(in_features=600, out_features=600, bias=True)
    (w2): Linear(in_features=600, out_features=600, bias=True)
    (layer_norm): LayerNorm((600,), eps=1e-05, elementwise_affine=True)
    (relu): ReLU(inplace=True)
  )
  (prior_cue_attention): Attention(600, 600, 600, mode='mlp')
  (prior_src_attention): Attention(600, 600, 600, mode='mlp')
  (decoder): RNNDecoder(
    (embedder): Embedder(16840, 200, padding_idx=0)
    (knowledge_attention): Attention(600, 600, 600, mode='mlp')
    (fc_memory): Sequential(
      (0): Linear(in_features=1, out_features=600, bias=True)
      (1): Tanh()
    )
    (select_st): Attention(600, 600, 600, mode='mlp')
    (attention): Attention(600, 600, 600, mode='mlp')
    (rnn): GRU(1400, 600, batch_first=True)
    (fc1): Linear(in_features=600, out_features=600, bias=True)
    (fc2): Linear(in_features=600, out_features=600, bias=True)
    (fc3): Linear(in_features=1200, out_features=1, bias=True)
    (fc4): Linear(in_features=600, out_features=600, bias=True)
    (fc5): Linear(in_features=600, out_features=600, bias=True)
    (fc6): Linear(in_features=1200, out_features=1, bias=True)
    (fc7): Linear(in_features=600, out_features=1, bias=False)
    (tanh): Tanh()
    (sigmoid): Sigmoid()
    (softmax): Softmax(dim=-1)
    (output_layer): Sequential(
      (0): Dropout(p=0.3, inplace=False)
      (1): Linear(in_features=1200, out_features=600, bias=True)
      (2): Linear(in_features=600, out_features=16840, bias=True)
      (3): LogSoftmax(dim=-1)
    )
  )
  (log_softmax): LogSoftmax(dim=-1)
  (softmax): Softmax(dim=-1)
  (sigmoid): Sigmoid()
  (softplus): Softplus(beta=1, threshold=20)
  (bow_output_layer): Sequential(
    (0): Linear(in_features=600, out_features=600, bias=True)
    (1): Tanh()
    (2): Linear(in_features=600, out_features=16840, bias=True)
    (3): LogSoftmax(dim=-1)
  )
  (nll_loss): NLLLoss()
  (kl_loss): KLDivLoss()
)
Number of parameters: 41108682

Training starts ...
KnowledgeSeq2Seq(
  (bridge): Sequential(
    (0): Linear(in_features=1200, out_features=600, bias=True)
    (1): Tanh()
  )
  (knowledge_encoder): RNNEncoder(
    (embedder): Embedder(16840, 200, padding_idx=0)
    (rnn): GRU(200, 300, batch_first=True, bidirectional=True)
  )
  (knowledge_encoder2): RNNEncoder(
    (rnn): GRU(600, 300, batch_first=True, bidirectional=True)
  )
  (src_encoder): RNNEncoder(
    (embedder): Embedder(16840, 200, padding_idx=0)
    (rnn): GRU(200, 300, batch_first=True, bidirectional=True)
  )
  (src_current_encoder): RNNEncoder(
    (embedder): Embedder(16840, 200, padding_idx=0)
    (rnn): GRU(200, 300, batch_first=True, bidirectional=True)
  )
  (src_encoder2): RNNEncoder(
    (rnn): GRU(600, 300, batch_first=True, bidirectional=True)
  )
  (tattention): tattention(
    (dropout): Dropout(p=0.0, inplace=False)
    (softmax): Softmax(dim=-1)
    (linear1): Linear(in_features=600, out_features=600, bias=True)
    (w1): Linear(in_features=600, out_features=600, bias=True)
    (w2): Linear(in_features=600, out_features=600, bias=True)
    (layer_norm): LayerNorm((600,), eps=1e-05, elementwise_affine=True)
    (relu): ReLU(inplace=True)
  )
  (prior_cue_attention): Attention(600, 600, 600, mode='mlp')
  (prior_src_attention): Attention(600, 600, 600, mode='mlp')
  (decoder): RNNDecoder(
    (embedder): Embedder(16840, 200, padding_idx=0)
    (knowledge_attention): Attention(600, 600, 600, mode='mlp')
    (fc_memory): Sequential(
      (0): Linear(in_features=1, out_features=600, bias=True)
      (1): Tanh()
    )
    (select_st): Attention(600, 600, 600, mode='mlp')
    (attention): Attention(600, 600, 600, mode='mlp')
    (rnn): GRU(1400, 600, batch_first=True)
    (fc1): Linear(in_features=600, out_features=600, bias=True)
    (fc2): Linear(in_features=600, out_features=600, bias=True)
    (fc3): Linear(in_features=1200, out_features=1, bias=True)
    (fc4): Linear(in_features=600, out_features=600, bias=True)
    (fc5): Linear(in_features=600, out_features=600, bias=True)
    (fc6): Linear(in_features=1200, out_features=1, bias=True)
    (fc7): Linear(in_features=600, out_features=1, bias=False)
    (tanh): Tanh()
    (sigmoid): Sigmoid()
    (softmax): Softmax(dim=-1)
    (output_layer): Sequential(
      (0): Dropout(p=0.3, inplace=False)
      (1): Linear(in_features=1200, out_features=600, bias=True)
      (2): Linear(in_features=600, out_features=16840, bias=True)
      (3): LogSoftmax(dim=-1)
    )
  )
  (log_softmax): LogSoftmax(dim=-1)
  (softmax): Softmax(dim=-1)
  (sigmoid): Sigmoid()
  (softplus): Softplus(beta=1, threshold=20)
  (bow_output_layer): Sequential(
    (0): Linear(in_features=600, out_features=600, bias=True)
    (1): Tanh()
    (2): Linear(in_features=600, out_features=16840, bias=True)
    (3): LogSoftmax(dim=-1)
  )
  (nll_loss): NLLLoss()
  (kl_loss): KLDivLoss()
)
Number of parameters: 41108682

Training starts ...
KnowledgeSeq2Seq(
  (bridge): Sequential(
    (0): Linear(in_features=1200, out_features=600, bias=True)
    (1): Tanh()
  )
  (knowledge_encoder): RNNEncoder(
    (embedder): Embedder(16840, 200, padding_idx=0)
    (rnn): GRU(200, 300, batch_first=True, bidirectional=True)
  )
  (knowledge_encoder2): RNNEncoder(
    (rnn): GRU(600, 300, batch_first=True, bidirectional=True)
  )
  (src_encoder): RNNEncoder(
    (embedder): Embedder(16840, 200, padding_idx=0)
    (rnn): GRU(200, 300, batch_first=True, bidirectional=True)
  )
  (src_current_encoder): RNNEncoder(
    (embedder): Embedder(16840, 200, padding_idx=0)
    (rnn): GRU(200, 300, batch_first=True, bidirectional=True)
  )
  (src_encoder2): RNNEncoder(
    (rnn): GRU(600, 300, batch_first=True, bidirectional=True)
  )
  (tattention): tattention(
    (dropout): Dropout(p=0.0, inplace=False)
    (softmax): Softmax(dim=-1)
    (linear1): Linear(in_features=600, out_features=600, bias=True)
    (w1): Linear(in_features=600, out_features=600, bias=True)
    (w2): Linear(in_features=600, out_features=600, bias=True)
    (layer_norm): LayerNorm((600,), eps=1e-05, elementwise_affine=True)
    (relu): ReLU(inplace=True)
  )
  (prior_cue_attention): Attention(600, 600, 600, mode='mlp')
  (prior_src_attention): Attention(600, 600, 600, mode='mlp')
  (decoder): RNNDecoder(
    (embedder): Embedder(16840, 200, padding_idx=0)
    (knowledge_attention): Attention(600, 600, 600, mode='mlp')
    (fc_memory): Sequential(
      (0): Linear(in_features=1, out_features=600, bias=True)
      (1): Tanh()
    )
    (select_st): Attention(600, 600, 600, mode='mlp')
    (attention): Attention(600, 600, 600, mode='mlp')
    (rnn): GRU(1400, 600, batch_first=True)
    (fc1): Linear(in_features=600, out_features=600, bias=True)
    (fc2): Linear(in_features=600, out_features=600, bias=True)
    (fc3): Linear(in_features=1200, out_features=1, bias=True)
    (fc4): Linear(in_features=600, out_features=600, bias=True)
    (fc5): Linear(in_features=600, out_features=600, bias=True)
    (fc6): Linear(in_features=1200, out_features=1, bias=True)
    (fc7): Linear(in_features=600, out_features=1, bias=False)
    (tanh): Tanh()
    (sigmoid): Sigmoid()
    (softmax): Softmax(dim=-1)
    (output_layer): Sequential(
      (0): Dropout(p=0.3, inplace=False)
      (1): Linear(in_features=1200, out_features=600, bias=True)
      (2): Linear(in_features=600, out_features=16840, bias=True)
      (3): LogSoftmax(dim=-1)
    )
  )
  (log_softmax): LogSoftmax(dim=-1)
  (softmax): Softmax(dim=-1)
  (sigmoid): Sigmoid()
  (softplus): Softplus(beta=1, threshold=20)
  (bow_output_layer): Sequential(
    (0): Linear(in_features=600, out_features=600, bias=True)
    (1): Tanh()
    (2): Linear(in_features=600, out_features=16840, bias=True)
    (3): LogSoftmax(dim=-1)
  )
  (nll_loss): NLLLoss()
  (kl_loss): KLDivLoss()
)
Number of parameters: 41108682

Training starts ...
KnowledgeSeq2Seq(
  (bridge): Sequential(
    (0): Linear(in_features=1200, out_features=600, bias=True)
    (1): Tanh()
  )
  (knowledge_encoder): RNNEncoder(
    (embedder): Embedder(16840, 200, padding_idx=0)
    (rnn): GRU(200, 300, batch_first=True, bidirectional=True)
  )
  (knowledge_encoder2): RNNEncoder(
    (rnn): GRU(600, 300, batch_first=True, bidirectional=True)
  )
  (src_encoder): RNNEncoder(
    (embedder): Embedder(16840, 200, padding_idx=0)
    (rnn): GRU(200, 300, batch_first=True, bidirectional=True)
  )
  (src_current_encoder): RNNEncoder(
    (embedder): Embedder(16840, 200, padding_idx=0)
    (rnn): GRU(200, 300, batch_first=True, bidirectional=True)
  )
  (src_encoder2): RNNEncoder(
    (rnn): GRU(600, 300, batch_first=True, bidirectional=True)
  )
  (tattention): tattention(
    (dropout): Dropout(p=0.0, inplace=False)
    (softmax): Softmax(dim=-1)
    (linear1): Linear(in_features=600, out_features=600, bias=True)
    (w1): Linear(in_features=600, out_features=600, bias=True)
    (w2): Linear(in_features=600, out_features=600, bias=True)
    (layer_norm): LayerNorm((600,), eps=1e-05, elementwise_affine=True)
    (relu): ReLU(inplace=True)
  )
  (prior_cue_attention): Attention(600, 600, 600, mode='mlp')
  (prior_src_attention): Attention(600, 600, 600, mode='mlp')
  (decoder): RNNDecoder(
    (embedder): Embedder(16840, 200, padding_idx=0)
    (knowledge_attention): Attention(600, 600, 600, mode='mlp')
    (fc_memory): Sequential(
      (0): Linear(in_features=1, out_features=600, bias=True)
      (1): Tanh()
    )
    (select_st): Attention(600, 600, 600, mode='mlp')
    (attention): Attention(600, 600, 600, mode='mlp')
    (rnn): GRU(1400, 600, batch_first=True)
    (fc1): Linear(in_features=600, out_features=600, bias=True)
    (fc2): Linear(in_features=600, out_features=600, bias=True)
    (fc3): Linear(in_features=1200, out_features=1, bias=True)
    (fc4): Linear(in_features=600, out_features=600, bias=True)
    (fc5): Linear(in_features=600, out_features=600, bias=True)
    (fc6): Linear(in_features=1200, out_features=1, bias=True)
    (fc7): Linear(in_features=600, out_features=1, bias=False)
    (tanh): Tanh()
    (sigmoid): Sigmoid()
    (softmax): Softmax(dim=-1)
    (output_layer): Sequential(
      (0): Dropout(p=0.3, inplace=False)
      (1): Linear(in_features=1200, out_features=600, bias=True)
      (2): Linear(in_features=600, out_features=16840, bias=True)
      (3): LogSoftmax(dim=-1)
    )
  )
  (log_softmax): LogSoftmax(dim=-1)
  (softmax): Softmax(dim=-1)
  (sigmoid): Sigmoid()
  (softplus): Softplus(beta=1, threshold=20)
  (bow_output_layer): Sequential(
    (0): Linear(in_features=600, out_features=600, bias=True)
    (1): Tanh()
    (2): Linear(in_features=600, out_features=16840, bias=True)
    (3): LogSoftmax(dim=-1)
  )
  (nll_loss): NLLLoss()
  (kl_loss): KLDivLoss()
)
Number of parameters: 41108682

Training starts ...
KnowledgeSeq2Seq(
  (bridge): Sequential(
    (0): Linear(in_features=1200, out_features=600, bias=True)
    (1): Tanh()
  )
  (knowledge_encoder): RNNEncoder(
    (embedder): Embedder(16840, 200, padding_idx=0)
    (rnn): GRU(200, 300, batch_first=True, bidirectional=True)
  )
  (knowledge_encoder2): RNNEncoder(
    (rnn): GRU(600, 300, batch_first=True, bidirectional=True)
  )
  (src_encoder): RNNEncoder(
    (embedder): Embedder(16840, 200, padding_idx=0)
    (rnn): GRU(200, 300, batch_first=True, bidirectional=True)
  )
  (src_current_encoder): RNNEncoder(
    (embedder): Embedder(16840, 200, padding_idx=0)
    (rnn): GRU(200, 300, batch_first=True, bidirectional=True)
  )
  (src_encoder2): RNNEncoder(
    (rnn): GRU(600, 300, batch_first=True, bidirectional=True)
  )
  (tattention): tattention(
    (dropout): Dropout(p=0.0, inplace=False)
    (softmax): Softmax(dim=-1)
    (linear1): Linear(in_features=600, out_features=600, bias=True)
    (w1): Linear(in_features=600, out_features=600, bias=True)
    (w2): Linear(in_features=600, out_features=600, bias=True)
    (layer_norm): LayerNorm((600,), eps=1e-05, elementwise_affine=True)
    (relu): ReLU(inplace=True)
  )
  (prior_cue_attention): Attention(600, 600, 600, mode='mlp')
  (prior_src_attention): Attention(600, 600, 600, mode='mlp')
  (decoder): RNNDecoder(
    (embedder): Embedder(16840, 200, padding_idx=0)
    (knowledge_attention): Attention(600, 600, 600, mode='mlp')
    (fc_memory): Sequential(
      (0): Linear(in_features=1, out_features=600, bias=True)
      (1): Tanh()
    )
    (select_st): Attention(600, 600, 600, mode='mlp')
    (attention): Attention(600, 600, 600, mode='mlp')
    (rnn): GRU(1400, 600, batch_first=True)
    (fc1): Linear(in_features=600, out_features=600, bias=True)
    (fc2): Linear(in_features=600, out_features=600, bias=True)
    (fc3): Linear(in_features=1200, out_features=1, bias=True)
    (fc4): Linear(in_features=600, out_features=600, bias=True)
    (fc5): Linear(in_features=600, out_features=600, bias=True)
    (fc6): Linear(in_features=1200, out_features=1, bias=True)
    (fc7): Linear(in_features=600, out_features=1, bias=False)
    (tanh): Tanh()
    (sigmoid): Sigmoid()
    (softmax): Softmax(dim=-1)
    (output_layer): Sequential(
      (0): Dropout(p=0.3, inplace=False)
      (1): Linear(in_features=1200, out_features=600, bias=True)
      (2): Linear(in_features=600, out_features=16840, bias=True)
      (3): LogSoftmax(dim=-1)
    )
  )
  (log_softmax): LogSoftmax(dim=-1)
  (softmax): Softmax(dim=-1)
  (sigmoid): Sigmoid()
  (softplus): Softplus(beta=1, threshold=20)
  (bow_output_layer): Sequential(
    (0): Linear(in_features=600, out_features=600, bias=True)
    (1): Tanh()
    (2): Linear(in_features=600, out_features=16840, bias=True)
    (3): LogSoftmax(dim=-1)
  )
  (nll_loss): NLLLoss()
  (kl_loss): KLDivLoss()
)
Number of parameters: 41108682

Training starts ...
KnowledgeSeq2Seq(
  (bridge): Sequential(
    (0): Linear(in_features=1200, out_features=600, bias=True)
    (1): Tanh()
  )
  (knowledge_encoder): RNNEncoder(
    (embedder): Embedder(16840, 200, padding_idx=0)
    (rnn): GRU(200, 300, batch_first=True, bidirectional=True)
  )
  (knowledge_encoder2): RNNEncoder(
    (rnn): GRU(600, 300, batch_first=True, bidirectional=True)
  )
  (src_encoder): RNNEncoder(
    (embedder): Embedder(16840, 200, padding_idx=0)
    (rnn): GRU(200, 300, batch_first=True, bidirectional=True)
  )
  (src_current_encoder): RNNEncoder(
    (embedder): Embedder(16840, 200, padding_idx=0)
    (rnn): GRU(200, 300, batch_first=True, bidirectional=True)
  )
  (src_encoder2): RNNEncoder(
    (rnn): GRU(600, 300, batch_first=True, bidirectional=True)
  )
  (tattention): tattention(
    (dropout): Dropout(p=0.0, inplace=False)
    (softmax): Softmax(dim=-1)
    (linear1): Linear(in_features=600, out_features=600, bias=True)
    (w1): Linear(in_features=600, out_features=600, bias=True)
    (w2): Linear(in_features=600, out_features=600, bias=True)
    (layer_norm): LayerNorm((600,), eps=1e-05, elementwise_affine=True)
    (relu): ReLU(inplace=True)
  )
  (prior_cue_attention): Attention(600, 600, 600, mode='mlp')
  (prior_src_attention): Attention(600, 600, 600, mode='mlp')
  (decoder): RNNDecoder(
    (embedder): Embedder(16840, 200, padding_idx=0)
    (knowledge_attention): Attention(600, 600, 600, mode='mlp')
    (fc_memory): Sequential(
      (0): Linear(in_features=1, out_features=600, bias=True)
      (1): Tanh()
    )
    (select_st): Attention(600, 600, 600, mode='mlp')
    (attention): Attention(600, 600, 600, mode='mlp')
    (rnn): GRU(1400, 600, batch_first=True)
    (fc1): Linear(in_features=600, out_features=600, bias=True)
    (fc2): Linear(in_features=600, out_features=600, bias=True)
    (fc3): Linear(in_features=1200, out_features=1, bias=True)
    (fc4): Linear(in_features=600, out_features=600, bias=True)
    (fc5): Linear(in_features=600, out_features=600, bias=True)
    (fc6): Linear(in_features=1200, out_features=1, bias=True)
    (fc7): Linear(in_features=600, out_features=1, bias=False)
    (tanh): Tanh()
    (sigmoid): Sigmoid()
    (softmax): Softmax(dim=-1)
    (output_layer): Sequential(
      (0): Dropout(p=0.3, inplace=False)
      (1): Linear(in_features=1200, out_features=600, bias=True)
      (2): Linear(in_features=600, out_features=16840, bias=True)
      (3): LogSoftmax(dim=-1)
    )
  )
  (log_softmax): LogSoftmax(dim=-1)
  (softmax): Softmax(dim=-1)
  (sigmoid): Sigmoid()
  (softplus): Softplus(beta=1, threshold=20)
  (bow_output_layer): Sequential(
    (0): Linear(in_features=600, out_features=600, bias=True)
    (1): Tanh()
    (2): Linear(in_features=600, out_features=16840, bias=True)
    (3): LogSoftmax(dim=-1)
  )
  (nll_loss): NLLLoss()
  (kl_loss): KLDivLoss()
)
Number of parameters: 41108682

Training starts ...
KnowledgeSeq2Seq(
  (bridge): Sequential(
    (0): Linear(in_features=1200, out_features=600, bias=True)
    (1): Tanh()
  )
  (knowledge_encoder): RNNEncoder(
    (embedder): Embedder(16840, 200, padding_idx=0)
    (rnn): GRU(200, 300, batch_first=True, bidirectional=True)
  )
  (knowledge_encoder2): RNNEncoder(
    (rnn): GRU(600, 300, batch_first=True, bidirectional=True)
  )
  (src_encoder): RNNEncoder(
    (embedder): Embedder(16840, 200, padding_idx=0)
    (rnn): GRU(200, 300, batch_first=True, bidirectional=True)
  )
  (src_current_encoder): RNNEncoder(
    (embedder): Embedder(16840, 200, padding_idx=0)
    (rnn): GRU(200, 300, batch_first=True, bidirectional=True)
  )
  (src_encoder2): RNNEncoder(
    (rnn): GRU(600, 300, batch_first=True, bidirectional=True)
  )
  (tattention): tattention(
    (dropout): Dropout(p=0.0, inplace=False)
    (softmax): Softmax(dim=-1)
    (linear1): Linear(in_features=600, out_features=600, bias=True)
    (w1): Linear(in_features=600, out_features=600, bias=True)
    (w2): Linear(in_features=600, out_features=600, bias=True)
    (layer_norm): LayerNorm((600,), eps=1e-05, elementwise_affine=True)
    (relu): ReLU(inplace=True)
  )
  (prior_cue_attention): Attention(600, 600, 600, mode='mlp')
  (prior_src_attention): Attention(600, 600, 600, mode='mlp')
  (decoder): RNNDecoder(
    (embedder): Embedder(16840, 200, padding_idx=0)
    (knowledge_attention): Attention(600, 600, 600, mode='mlp')
    (fc_memory): Sequential(
      (0): Linear(in_features=1, out_features=600, bias=True)
      (1): Tanh()
    )
    (select_st): Attention(600, 600, 600, mode='mlp')
    (attention): Attention(600, 600, 600, mode='mlp')
    (rnn): GRU(1400, 600, batch_first=True)
    (fc1): Linear(in_features=600, out_features=600, bias=True)
    (fc2): Linear(in_features=600, out_features=600, bias=True)
    (fc3): Linear(in_features=1200, out_features=1, bias=True)
    (fc4): Linear(in_features=600, out_features=600, bias=True)
    (fc5): Linear(in_features=600, out_features=600, bias=True)
    (fc6): Linear(in_features=1200, out_features=1, bias=True)
    (fc7): Linear(in_features=600, out_features=1, bias=False)
    (tanh): Tanh()
    (sigmoid): Sigmoid()
    (softmax): Softmax(dim=-1)
    (output_layer): Sequential(
      (0): Dropout(p=0.3, inplace=False)
      (1): Linear(in_features=1200, out_features=600, bias=True)
      (2): Linear(in_features=600, out_features=16840, bias=True)
      (3): LogSoftmax(dim=-1)
    )
  )
  (log_softmax): LogSoftmax(dim=-1)
  (softmax): Softmax(dim=-1)
  (sigmoid): Sigmoid()
  (softplus): Softplus(beta=1, threshold=20)
  (bow_output_layer): Sequential(
    (0): Linear(in_features=600, out_features=600, bias=True)
    (1): Tanh()
    (2): Linear(in_features=600, out_features=16840, bias=True)
    (3): LogSoftmax(dim=-1)
  )
  (nll_loss): NLLLoss()
  (kl_loss): KLDivLoss()
)
Number of parameters: 41108682

Training starts ...
KnowledgeSeq2Seq(
  (bridge): Sequential(
    (0): Linear(in_features=1200, out_features=600, bias=True)
    (1): Tanh()
  )
  (knowledge_encoder): RNNEncoder(
    (embedder): Embedder(16840, 200, padding_idx=0)
    (rnn): GRU(200, 300, batch_first=True, bidirectional=True)
  )
  (knowledge_encoder2): RNNEncoder(
    (rnn): GRU(600, 300, batch_first=True, bidirectional=True)
  )
  (src_encoder): RNNEncoder(
    (embedder): Embedder(16840, 200, padding_idx=0)
    (rnn): GRU(200, 300, batch_first=True, bidirectional=True)
  )
  (src_current_encoder): RNNEncoder(
    (embedder): Embedder(16840, 200, padding_idx=0)
    (rnn): GRU(200, 300, batch_first=True, bidirectional=True)
  )
  (src_encoder2): RNNEncoder(
    (rnn): GRU(600, 300, batch_first=True, bidirectional=True)
  )
  (tattention): tattention(
    (dropout): Dropout(p=0.0, inplace=False)
    (softmax): Softmax(dim=-1)
    (linear1): Linear(in_features=600, out_features=600, bias=True)
    (w1): Linear(in_features=600, out_features=600, bias=True)
    (w2): Linear(in_features=600, out_features=600, bias=True)
    (layer_norm): LayerNorm((600,), eps=1e-05, elementwise_affine=True)
    (relu): ReLU(inplace=True)
  )
  (prior_cue_attention): Attention(600, 600, 600, mode='mlp')
  (prior_src_attention): Attention(600, 600, 600, mode='mlp')
  (decoder): RNNDecoder(
    (embedder): Embedder(16840, 200, padding_idx=0)
    (knowledge_attention): Attention(600, 600, 600, mode='mlp')
    (fc_memory): Sequential(
      (0): Linear(in_features=1, out_features=600, bias=True)
      (1): Tanh()
    )
    (select_st): Attention(600, 600, 600, mode='mlp')
    (attention): Attention(600, 600, 600, mode='mlp')
    (rnn): GRU(1400, 600, batch_first=True)
    (fc1): Linear(in_features=600, out_features=600, bias=True)
    (fc2): Linear(in_features=600, out_features=600, bias=True)
    (fc3): Linear(in_features=1200, out_features=1, bias=True)
    (fc4): Linear(in_features=600, out_features=600, bias=True)
    (fc5): Linear(in_features=600, out_features=600, bias=True)
    (fc6): Linear(in_features=1200, out_features=1, bias=True)
    (fc7): Linear(in_features=600, out_features=1, bias=False)
    (tanh): Tanh()
    (sigmoid): Sigmoid()
    (softmax): Softmax(dim=-1)
    (output_layer): Sequential(
      (0): Dropout(p=0.3, inplace=False)
      (1): Linear(in_features=1200, out_features=600, bias=True)
      (2): Linear(in_features=600, out_features=16840, bias=True)
      (3): LogSoftmax(dim=-1)
    )
  )
  (log_softmax): LogSoftmax(dim=-1)
  (softmax): Softmax(dim=-1)
  (sigmoid): Sigmoid()
  (softplus): Softplus(beta=1, threshold=20)
  (bow_output_layer): Sequential(
    (0): Linear(in_features=600, out_features=600, bias=True)
    (1): Tanh()
    (2): Linear(in_features=600, out_features=16840, bias=True)
    (3): LogSoftmax(dim=-1)
  )
  (nll_loss): NLLLoss()
  (kl_loss): KLDivLoss()
)
Number of parameters: 41108682

Training starts ...
KnowledgeSeq2Seq(
  (bridge): Sequential(
    (0): Linear(in_features=1200, out_features=600, bias=True)
    (1): Tanh()
  )
  (knowledge_encoder): RNNEncoder(
    (embedder): Embedder(16840, 200, padding_idx=0)
    (rnn): GRU(200, 300, batch_first=True, bidirectional=True)
  )
  (knowledge_encoder2): RNNEncoder(
    (rnn): GRU(600, 300, batch_first=True, bidirectional=True)
  )
  (src_encoder): RNNEncoder(
    (embedder): Embedder(16840, 200, padding_idx=0)
    (rnn): GRU(200, 300, batch_first=True, bidirectional=True)
  )
  (src_current_encoder): RNNEncoder(
    (embedder): Embedder(16840, 200, padding_idx=0)
    (rnn): GRU(200, 300, batch_first=True, bidirectional=True)
  )
  (src_encoder2): RNNEncoder(
    (rnn): GRU(600, 300, batch_first=True, bidirectional=True)
  )
  (tattention): tattention(
    (dropout): Dropout(p=0.0, inplace=False)
    (softmax): Softmax(dim=-1)
    (linear1): Linear(in_features=600, out_features=600, bias=True)
    (w1): Linear(in_features=600, out_features=600, bias=True)
    (w2): Linear(in_features=600, out_features=600, bias=True)
    (layer_norm): LayerNorm((600,), eps=1e-05, elementwise_affine=True)
    (relu): ReLU(inplace=True)
  )
  (prior_cue_attention): Attention(600, 600, 600, mode='mlp')
  (prior_src_attention): Attention(600, 600, 600, mode='mlp')
  (decoder): RNNDecoder(
    (embedder): Embedder(16840, 200, padding_idx=0)
    (knowledge_attention): Attention(600, 600, 600, mode='mlp')
    (fc_memory): Sequential(
      (0): Linear(in_features=1, out_features=600, bias=True)
      (1): Tanh()
    )
    (select_st): Attention(600, 600, 600, mode='mlp')
    (attention): Attention(600, 600, 600, mode='mlp')
    (rnn): GRU(1400, 600, batch_first=True)
    (fc1): Linear(in_features=600, out_features=600, bias=True)
    (fc2): Linear(in_features=600, out_features=600, bias=True)
    (fc3): Linear(in_features=1200, out_features=1, bias=True)
    (fc4): Linear(in_features=600, out_features=600, bias=True)
    (fc5): Linear(in_features=600, out_features=600, bias=True)
    (fc6): Linear(in_features=1200, out_features=1, bias=True)
    (fc7): Linear(in_features=600, out_features=1, bias=False)
    (tanh): Tanh()
    (sigmoid): Sigmoid()
    (softmax): Softmax(dim=-1)
    (output_layer): Sequential(
      (0): Dropout(p=0.3, inplace=False)
      (1): Linear(in_features=1200, out_features=600, bias=True)
      (2): Linear(in_features=600, out_features=16840, bias=True)
      (3): LogSoftmax(dim=-1)
    )
  )
  (log_softmax): LogSoftmax(dim=-1)
  (softmax): Softmax(dim=-1)
  (sigmoid): Sigmoid()
  (softplus): Softplus(beta=1, threshold=20)
  (bow_output_layer): Sequential(
    (0): Linear(in_features=600, out_features=600, bias=True)
    (1): Tanh()
    (2): Linear(in_features=600, out_features=16840, bias=True)
    (3): LogSoftmax(dim=-1)
  )
  (nll_loss): NLLLoss()
  (kl_loss): KLDivLoss()
)
Number of parameters: 41108682

Training starts ...
KnowledgeSeq2Seq(
  (bridge): Sequential(
    (0): Linear(in_features=1200, out_features=600, bias=True)
    (1): Tanh()
  )
  (knowledge_encoder): RNNEncoder(
    (embedder): Embedder(16840, 200, padding_idx=0)
    (rnn): GRU(200, 300, batch_first=True, bidirectional=True)
  )
  (knowledge_encoder2): RNNEncoder(
    (rnn): GRU(600, 300, batch_first=True, bidirectional=True)
  )
  (src_encoder): RNNEncoder(
    (embedder): Embedder(16840, 200, padding_idx=0)
    (rnn): GRU(200, 300, batch_first=True, bidirectional=True)
  )
  (src_current_encoder): RNNEncoder(
    (embedder): Embedder(16840, 200, padding_idx=0)
    (rnn): GRU(200, 300, batch_first=True, bidirectional=True)
  )
  (src_encoder2): RNNEncoder(
    (rnn): GRU(600, 300, batch_first=True, bidirectional=True)
  )
  (tattention): tattention(
    (dropout): Dropout(p=0.0, inplace=False)
    (softmax): Softmax(dim=-1)
    (linear1): Linear(in_features=600, out_features=600, bias=True)
    (w1): Linear(in_features=600, out_features=600, bias=True)
    (w2): Linear(in_features=600, out_features=600, bias=True)
    (layer_norm): LayerNorm((600,), eps=1e-05, elementwise_affine=True)
    (relu): ReLU(inplace=True)
  )
  (prior_cue_attention): Attention(600, 600, 600, mode='mlp')
  (prior_src_attention): Attention(600, 600, 600, mode='mlp')
  (decoder): RNNDecoder(
    (embedder): Embedder(16840, 200, padding_idx=0)
    (knowledge_attention): Attention(600, 600, 600, mode='mlp')
    (fc_memory): Sequential(
      (0): Linear(in_features=1, out_features=600, bias=True)
      (1): Tanh()
    )
    (select_st): Attention(600, 600, 600, mode='mlp')
    (attention): Attention(600, 600, 600, mode='mlp')
    (rnn): GRU(1400, 600, batch_first=True)
    (fc1): Linear(in_features=600, out_features=600, bias=True)
    (fc2): Linear(in_features=600, out_features=600, bias=True)
    (fc3): Linear(in_features=1200, out_features=1, bias=True)
    (fc4): Linear(in_features=600, out_features=600, bias=True)
    (fc5): Linear(in_features=600, out_features=600, bias=True)
    (fc6): Linear(in_features=1200, out_features=1, bias=True)
    (fc7): Linear(in_features=600, out_features=1, bias=False)
    (tanh): Tanh()
    (sigmoid): Sigmoid()
    (softmax): Softmax(dim=-1)
    (output_layer): Sequential(
      (0): Dropout(p=0.3, inplace=False)
      (1): Linear(in_features=1200, out_features=600, bias=True)
      (2): Linear(in_features=600, out_features=16840, bias=True)
      (3): LogSoftmax(dim=-1)
    )
  )
  (log_softmax): LogSoftmax(dim=-1)
  (softmax): Softmax(dim=-1)
  (sigmoid): Sigmoid()
  (softplus): Softplus(beta=1, threshold=20)
  (bow_output_layer): Sequential(
    (0): Linear(in_features=600, out_features=600, bias=True)
    (1): Tanh()
    (2): Linear(in_features=600, out_features=16840, bias=True)
    (3): LogSoftmax(dim=-1)
  )
  (nll_loss): NLLLoss()
  (kl_loss): KLDivLoss()
)
Number of parameters: 41108682

Training starts ...
KnowledgeSeq2Seq(
  (bridge): Sequential(
    (0): Linear(in_features=1200, out_features=600, bias=True)
    (1): Tanh()
  )
  (knowledge_encoder): RNNEncoder(
    (embedder): Embedder(16840, 200, padding_idx=0)
    (rnn): GRU(200, 300, batch_first=True, bidirectional=True)
  )
  (knowledge_encoder2): RNNEncoder(
    (rnn): GRU(600, 300, batch_first=True, bidirectional=True)
  )
  (src_encoder): RNNEncoder(
    (embedder): Embedder(16840, 200, padding_idx=0)
    (rnn): GRU(200, 300, batch_first=True, bidirectional=True)
  )
  (src_current_encoder): RNNEncoder(
    (embedder): Embedder(16840, 200, padding_idx=0)
    (rnn): GRU(200, 300, batch_first=True, bidirectional=True)
  )
  (src_encoder2): RNNEncoder(
    (rnn): GRU(600, 300, batch_first=True, bidirectional=True)
  )
  (tattention): tattention(
    (dropout): Dropout(p=0.0, inplace=False)
    (softmax): Softmax(dim=-1)
    (linear1): Linear(in_features=600, out_features=600, bias=True)
    (w1): Linear(in_features=600, out_features=600, bias=True)
    (w2): Linear(in_features=600, out_features=600, bias=True)
    (layer_norm): LayerNorm((600,), eps=1e-05, elementwise_affine=True)
    (relu): ReLU(inplace=True)
  )
  (prior_cue_attention): Attention(600, 600, 600, mode='mlp')
  (prior_src_attention): Attention(600, 600, 600, mode='mlp')
  (decoder): RNNDecoder(
    (embedder): Embedder(16840, 200, padding_idx=0)
    (knowledge_attention): Attention(600, 600, 600, mode='mlp')
    (fc_memory): Sequential(
      (0): Linear(in_features=1, out_features=600, bias=True)
      (1): Tanh()
    )
    (select_st): Attention(600, 600, 600, mode='mlp')
    (attention): Attention(600, 600, 600, mode='mlp')
    (rnn): GRU(1400, 600, batch_first=True)
    (fc1): Linear(in_features=600, out_features=600, bias=True)
    (fc2): Linear(in_features=600, out_features=600, bias=True)
    (fc3): Linear(in_features=1200, out_features=1, bias=True)
    (fc4): Linear(in_features=600, out_features=600, bias=True)
    (fc5): Linear(in_features=600, out_features=600, bias=True)
    (fc6): Linear(in_features=1200, out_features=1, bias=True)
    (fc7): Linear(in_features=600, out_features=1, bias=False)
    (tanh): Tanh()
    (sigmoid): Sigmoid()
    (softmax): Softmax(dim=-1)
    (output_layer): Sequential(
      (0): Dropout(p=0.3, inplace=False)
      (1): Linear(in_features=1200, out_features=600, bias=True)
      (2): Linear(in_features=600, out_features=16840, bias=True)
      (3): LogSoftmax(dim=-1)
    )
  )
  (log_softmax): LogSoftmax(dim=-1)
  (softmax): Softmax(dim=-1)
  (sigmoid): Sigmoid()
  (softplus): Softplus(beta=1, threshold=20)
  (bow_output_layer): Sequential(
    (0): Linear(in_features=600, out_features=600, bias=True)
    (1): Tanh()
    (2): Linear(in_features=600, out_features=16840, bias=True)
    (3): LogSoftmax(dim=-1)
  )
  (nll_loss): NLLLoss()
  (kl_loss): KLDivLoss()
)
Number of parameters: 41108682

Training starts ...
KnowledgeSeq2Seq(
  (bridge): Sequential(
    (0): Linear(in_features=1200, out_features=600, bias=True)
    (1): Tanh()
  )
  (knowledge_encoder): RNNEncoder(
    (embedder): Embedder(16840, 200, padding_idx=0)
    (rnn): GRU(200, 300, batch_first=True, bidirectional=True)
  )
  (knowledge_encoder2): RNNEncoder(
    (rnn): GRU(600, 300, batch_first=True, bidirectional=True)
  )
  (src_encoder): RNNEncoder(
    (embedder): Embedder(16840, 200, padding_idx=0)
    (rnn): GRU(200, 300, batch_first=True, bidirectional=True)
  )
  (src_current_encoder): RNNEncoder(
    (embedder): Embedder(16840, 200, padding_idx=0)
    (rnn): GRU(200, 300, batch_first=True, bidirectional=True)
  )
  (src_encoder2): RNNEncoder(
    (rnn): GRU(600, 300, batch_first=True, bidirectional=True)
  )
  (tattention): tattention(
    (dropout): Dropout(p=0.0, inplace=False)
    (softmax): Softmax(dim=-1)
    (linear1): Linear(in_features=600, out_features=600, bias=True)
    (w1): Linear(in_features=600, out_features=600, bias=True)
    (w2): Linear(in_features=600, out_features=600, bias=True)
    (layer_norm): LayerNorm((600,), eps=1e-05, elementwise_affine=True)
    (relu): ReLU(inplace=True)
  )
  (prior_cue_attention): Attention(600, 600, 600, mode='mlp')
  (prior_src_attention): Attention(600, 600, 600, mode='mlp')
  (decoder): RNNDecoder(
    (embedder): Embedder(16840, 200, padding_idx=0)
    (knowledge_attention): Attention(600, 600, 600, mode='mlp')
    (fc_memory): Sequential(
      (0): Linear(in_features=1, out_features=600, bias=True)
      (1): Tanh()
    )
    (select_st): Attention(600, 600, 600, mode='mlp')
    (attention): Attention(600, 600, 600, mode='mlp')
    (rnn): GRU(1400, 600, batch_first=True)
    (fc1): Linear(in_features=600, out_features=600, bias=True)
    (fc2): Linear(in_features=600, out_features=600, bias=True)
    (fc3): Linear(in_features=1200, out_features=1, bias=True)
    (fc4): Linear(in_features=600, out_features=600, bias=True)
    (fc5): Linear(in_features=600, out_features=600, bias=True)
    (fc6): Linear(in_features=1200, out_features=1, bias=True)
    (fc7): Linear(in_features=600, out_features=1, bias=False)
    (tanh): Tanh()
    (sigmoid): Sigmoid()
    (softmax): Softmax(dim=-1)
    (output_layer): Sequential(
      (0): Dropout(p=0.3, inplace=False)
      (1): Linear(in_features=1200, out_features=600, bias=True)
      (2): Linear(in_features=600, out_features=16840, bias=True)
      (3): LogSoftmax(dim=-1)
    )
  )
  (log_softmax): LogSoftmax(dim=-1)
  (softmax): Softmax(dim=-1)
  (sigmoid): Sigmoid()
  (softplus): Softplus(beta=1, threshold=20)
  (bow_output_layer): Sequential(
    (0): Linear(in_features=600, out_features=600, bias=True)
    (1): Tanh()
    (2): Linear(in_features=600, out_features=16840, bias=True)
    (3): LogSoftmax(dim=-1)
  )
  (nll_loss): NLLLoss()
  (kl_loss): KLDivLoss()
)
Number of parameters: 41108682

Training starts ...
KnowledgeSeq2Seq(
  (bridge): Sequential(
    (0): Linear(in_features=1200, out_features=600, bias=True)
    (1): Tanh()
  )
  (knowledge_encoder): RNNEncoder(
    (embedder): Embedder(16840, 200, padding_idx=0)
    (rnn): GRU(200, 300, batch_first=True, bidirectional=True)
  )
  (knowledge_encoder2): RNNEncoder(
    (rnn): GRU(600, 300, batch_first=True, bidirectional=True)
  )
  (src_encoder): RNNEncoder(
    (embedder): Embedder(16840, 200, padding_idx=0)
    (rnn): GRU(200, 300, batch_first=True, bidirectional=True)
  )
  (src_current_encoder): RNNEncoder(
    (embedder): Embedder(16840, 200, padding_idx=0)
    (rnn): GRU(200, 300, batch_first=True, bidirectional=True)
  )
  (src_encoder2): RNNEncoder(
    (rnn): GRU(600, 300, batch_first=True, bidirectional=True)
  )
  (tattention): tattention(
    (dropout): Dropout(p=0.0, inplace=False)
    (softmax): Softmax(dim=-1)
    (linear1): Linear(in_features=600, out_features=600, bias=True)
    (w1): Linear(in_features=600, out_features=600, bias=True)
    (w2): Linear(in_features=600, out_features=600, bias=True)
    (layer_norm): LayerNorm((600,), eps=1e-05, elementwise_affine=True)
    (relu): ReLU(inplace=True)
  )
  (prior_cue_attention): Attention(600, 600, 600, mode='mlp')
  (prior_src_attention): Attention(600, 600, 600, mode='mlp')
  (decoder): RNNDecoder(
    (embedder): Embedder(16840, 200, padding_idx=0)
    (knowledge_attention): Attention(600, 600, 600, mode='mlp')
    (fc_memory): Sequential(
      (0): Linear(in_features=1, out_features=600, bias=True)
      (1): Tanh()
    )
    (select_st): Attention(600, 600, 600, mode='mlp')
    (attention): Attention(600, 600, 600, mode='mlp')
    (rnn): GRU(1400, 600, batch_first=True)
    (fc1): Linear(in_features=600, out_features=600, bias=True)
    (fc2): Linear(in_features=600, out_features=600, bias=True)
    (fc3): Linear(in_features=1200, out_features=1, bias=True)
    (fc4): Linear(in_features=600, out_features=600, bias=True)
    (fc5): Linear(in_features=600, out_features=600, bias=True)
    (fc6): Linear(in_features=1200, out_features=1, bias=True)
    (fc7): Linear(in_features=600, out_features=1, bias=False)
    (tanh): Tanh()
    (sigmoid): Sigmoid()
    (softmax): Softmax(dim=-1)
    (output_layer): Sequential(
      (0): Dropout(p=0.3, inplace=False)
      (1): Linear(in_features=1200, out_features=600, bias=True)
      (2): Linear(in_features=600, out_features=16840, bias=True)
      (3): LogSoftmax(dim=-1)
    )
  )
  (log_softmax): LogSoftmax(dim=-1)
  (softmax): Softmax(dim=-1)
  (sigmoid): Sigmoid()
  (softplus): Softplus(beta=1, threshold=20)
  (bow_output_layer): Sequential(
    (0): Linear(in_features=600, out_features=600, bias=True)
    (1): Tanh()
    (2): Linear(in_features=600, out_features=16840, bias=True)
    (3): LogSoftmax(dim=-1)
  )
  (nll_loss): NLLLoss()
  (kl_loss): KLDivLoss()
)
Number of parameters: 41108682

Training starts ...
KnowledgeSeq2Seq(
  (bridge): Sequential(
    (0): Linear(in_features=1200, out_features=600, bias=True)
    (1): Tanh()
  )
  (knowledge_encoder): RNNEncoder(
    (embedder): Embedder(16840, 200, padding_idx=0)
    (rnn): GRU(200, 300, batch_first=True, bidirectional=True)
  )
  (knowledge_encoder2): RNNEncoder(
    (rnn): GRU(600, 300, batch_first=True, bidirectional=True)
  )
  (src_encoder): RNNEncoder(
    (embedder): Embedder(16840, 200, padding_idx=0)
    (rnn): GRU(200, 300, batch_first=True, bidirectional=True)
  )
  (src_current_encoder): RNNEncoder(
    (embedder): Embedder(16840, 200, padding_idx=0)
    (rnn): GRU(200, 300, batch_first=True, bidirectional=True)
  )
  (src_encoder2): RNNEncoder(
    (rnn): GRU(600, 300, batch_first=True, bidirectional=True)
  )
  (tattention): tattention(
    (dropout): Dropout(p=0.0, inplace=False)
    (softmax): Softmax(dim=-1)
    (linear1): Linear(in_features=600, out_features=600, bias=True)
    (w1): Linear(in_features=600, out_features=600, bias=True)
    (w2): Linear(in_features=600, out_features=600, bias=True)
    (layer_norm): LayerNorm((600,), eps=1e-05, elementwise_affine=True)
    (relu): ReLU(inplace=True)
  )
  (prior_cue_attention): Attention(600, 600, 600, mode='mlp')
  (prior_src_attention): Attention(600, 600, 600, mode='mlp')
  (decoder): RNNDecoder(
    (embedder): Embedder(16840, 200, padding_idx=0)
    (knowledge_attention): Attention(600, 600, 600, mode='mlp')
    (fc_memory): Sequential(
      (0): Linear(in_features=1, out_features=600, bias=True)
      (1): Tanh()
    )
    (select_st): Attention(600, 600, 600, mode='mlp')
    (attention): Attention(600, 600, 600, mode='mlp')
    (rnn): GRU(1400, 600, batch_first=True)
    (fc1): Linear(in_features=600, out_features=600, bias=True)
    (fc2): Linear(in_features=600, out_features=600, bias=True)
    (fc3): Linear(in_features=1200, out_features=1, bias=True)
    (fc4): Linear(in_features=600, out_features=600, bias=True)
    (fc5): Linear(in_features=600, out_features=600, bias=True)
    (fc6): Linear(in_features=1200, out_features=1, bias=True)
    (fc7): Linear(in_features=600, out_features=1, bias=False)
    (tanh): Tanh()
    (sigmoid): Sigmoid()
    (softmax): Softmax(dim=-1)
    (output_layer): Sequential(
      (0): Dropout(p=0.3, inplace=False)
      (1): Linear(in_features=1200, out_features=600, bias=True)
      (2): Linear(in_features=600, out_features=16840, bias=True)
      (3): LogSoftmax(dim=-1)
    )
  )
  (log_softmax): LogSoftmax(dim=-1)
  (softmax): Softmax(dim=-1)
  (sigmoid): Sigmoid()
  (softplus): Softplus(beta=1, threshold=20)
  (bow_output_layer): Sequential(
    (0): Linear(in_features=600, out_features=600, bias=True)
    (1): Tanh()
    (2): Linear(in_features=600, out_features=16840, bias=True)
    (3): LogSoftmax(dim=-1)
  )
  (nll_loss): NLLLoss()
  (kl_loss): KLDivLoss()
)
Number of parameters: 41108682

Training starts ...
KnowledgeSeq2Seq(
  (bridge): Sequential(
    (0): Linear(in_features=1200, out_features=600, bias=True)
    (1): Tanh()
  )
  (knowledge_encoder): RNNEncoder(
    (embedder): Embedder(16840, 200, padding_idx=0)
    (rnn): GRU(200, 300, batch_first=True, bidirectional=True)
  )
  (knowledge_encoder2): RNNEncoder(
    (rnn): GRU(600, 300, batch_first=True, bidirectional=True)
  )
  (src_encoder): RNNEncoder(
    (embedder): Embedder(16840, 200, padding_idx=0)
    (rnn): GRU(200, 300, batch_first=True, bidirectional=True)
  )
  (src_current_encoder): RNNEncoder(
    (embedder): Embedder(16840, 200, padding_idx=0)
    (rnn): GRU(200, 300, batch_first=True, bidirectional=True)
  )
  (src_encoder2): RNNEncoder(
    (rnn): GRU(600, 300, batch_first=True, bidirectional=True)
  )
  (tattention): tattention(
    (dropout): Dropout(p=0.0, inplace=False)
    (softmax): Softmax(dim=-1)
    (linear1): Linear(in_features=600, out_features=600, bias=True)
    (w1): Linear(in_features=600, out_features=600, bias=True)
    (w2): Linear(in_features=600, out_features=600, bias=True)
    (layer_norm): LayerNorm((600,), eps=1e-05, elementwise_affine=True)
    (relu): ReLU(inplace=True)
  )
  (prior_cue_attention): Attention(600, 600, 600, mode='mlp')
  (prior_src_attention): Attention(600, 600, 600, mode='mlp')
  (decoder): RNNDecoder(
    (embedder): Embedder(16840, 200, padding_idx=0)
    (knowledge_attention): Attention(600, 600, 600, mode='mlp')
    (fc_memory): Sequential(
      (0): Linear(in_features=1, out_features=600, bias=True)
      (1): Tanh()
    )
    (select_st): Attention(600, 600, 600, mode='mlp')
    (attention): Attention(600, 600, 600, mode='mlp')
    (rnn): GRU(1400, 600, batch_first=True)
    (fc1): Linear(in_features=600, out_features=600, bias=True)
    (fc2): Linear(in_features=600, out_features=600, bias=True)
    (fc3): Linear(in_features=1200, out_features=1, bias=True)
    (fc4): Linear(in_features=600, out_features=600, bias=True)
    (fc5): Linear(in_features=600, out_features=600, bias=True)
    (fc6): Linear(in_features=1200, out_features=1, bias=True)
    (fc7): Linear(in_features=600, out_features=1, bias=False)
    (tanh): Tanh()
    (sigmoid): Sigmoid()
    (softmax): Softmax(dim=-1)
    (output_layer): Sequential(
      (0): Dropout(p=0.3, inplace=False)
      (1): Linear(in_features=1200, out_features=600, bias=True)
      (2): Linear(in_features=600, out_features=16840, bias=True)
      (3): LogSoftmax(dim=-1)
    )
  )
  (log_softmax): LogSoftmax(dim=-1)
  (softmax): Softmax(dim=-1)
  (sigmoid): Sigmoid()
  (softplus): Softplus(beta=1, threshold=20)
  (bow_output_layer): Sequential(
    (0): Linear(in_features=600, out_features=600, bias=True)
    (1): Tanh()
    (2): Linear(in_features=600, out_features=16840, bias=True)
    (3): LogSoftmax(dim=-1)
  )
  (nll_loss): NLLLoss()
  (kl_loss): KLDivLoss()
)
Number of parameters: 41108682

Training starts ...
KnowledgeSeq2Seq(
  (bridge): Sequential(
    (0): Linear(in_features=1200, out_features=600, bias=True)
    (1): Tanh()
  )
  (knowledge_encoder): RNNEncoder(
    (embedder): Embedder(16840, 200, padding_idx=0)
    (rnn): GRU(200, 300, batch_first=True, bidirectional=True)
  )
  (knowledge_encoder2): RNNEncoder(
    (rnn): GRU(600, 300, batch_first=True, bidirectional=True)
  )
  (src_encoder): RNNEncoder(
    (embedder): Embedder(16840, 200, padding_idx=0)
    (rnn): GRU(200, 300, batch_first=True, bidirectional=True)
  )
  (src_current_encoder): RNNEncoder(
    (embedder): Embedder(16840, 200, padding_idx=0)
    (rnn): GRU(200, 300, batch_first=True, bidirectional=True)
  )
  (src_encoder2): RNNEncoder(
    (rnn): GRU(600, 300, batch_first=True, bidirectional=True)
  )
  (tattention): tattention(
    (dropout): Dropout(p=0.0, inplace=False)
    (softmax): Softmax(dim=-1)
    (linear1): Linear(in_features=600, out_features=600, bias=True)
    (w1): Linear(in_features=600, out_features=600, bias=True)
    (w2): Linear(in_features=600, out_features=600, bias=True)
    (layer_norm): LayerNorm((600,), eps=1e-05, elementwise_affine=True)
    (relu): ReLU(inplace=True)
  )
  (prior_cue_attention): Attention(600, 600, 600, mode='mlp')
  (prior_src_attention): Attention(600, 600, 600, mode='mlp')
  (decoder): RNNDecoder(
    (embedder): Embedder(16840, 200, padding_idx=0)
    (knowledge_attention): Attention(600, 600, 600, mode='mlp')
    (fc_memory): Sequential(
      (0): Linear(in_features=1, out_features=600, bias=True)
      (1): Tanh()
    )
    (select_st): Attention(600, 600, 600, mode='mlp')
    (attention): Attention(600, 600, 600, mode='mlp')
    (rnn): GRU(1400, 600, batch_first=True)
    (fc1): Linear(in_features=600, out_features=600, bias=True)
    (fc2): Linear(in_features=600, out_features=600, bias=True)
    (fc3): Linear(in_features=1200, out_features=1, bias=True)
    (fc4): Linear(in_features=600, out_features=600, bias=True)
    (fc5): Linear(in_features=600, out_features=600, bias=True)
    (fc6): Linear(in_features=1200, out_features=1, bias=True)
    (fc7): Linear(in_features=600, out_features=1, bias=False)
    (tanh): Tanh()
    (sigmoid): Sigmoid()
    (softmax): Softmax(dim=-1)
    (output_layer): Sequential(
      (0): Dropout(p=0.3, inplace=False)
      (1): Linear(in_features=1200, out_features=600, bias=True)
      (2): Linear(in_features=600, out_features=16840, bias=True)
      (3): LogSoftmax(dim=-1)
    )
  )
  (log_softmax): LogSoftmax(dim=-1)
  (softmax): Softmax(dim=-1)
  (sigmoid): Sigmoid()
  (softplus): Softplus(beta=1, threshold=20)
  (bow_output_layer): Sequential(
    (0): Linear(in_features=600, out_features=600, bias=True)
    (1): Tanh()
    (2): Linear(in_features=600, out_features=16840, bias=True)
    (3): LogSoftmax(dim=-1)
  )
  (nll_loss): NLLLoss()
  (kl_loss): KLDivLoss()
)
Number of parameters: 41108682

Training starts ...
KnowledgeSeq2Seq(
  (bridge): Sequential(
    (0): Linear(in_features=1200, out_features=600, bias=True)
    (1): Tanh()
  )
  (knowledge_encoder): RNNEncoder(
    (embedder): Embedder(16840, 200, padding_idx=0)
    (rnn): GRU(200, 300, batch_first=True, bidirectional=True)
  )
  (knowledge_encoder2): RNNEncoder(
    (rnn): GRU(600, 300, batch_first=True, bidirectional=True)
  )
  (src_encoder): RNNEncoder(
    (embedder): Embedder(16840, 200, padding_idx=0)
    (rnn): GRU(200, 300, batch_first=True, bidirectional=True)
  )
  (src_current_encoder): RNNEncoder(
    (embedder): Embedder(16840, 200, padding_idx=0)
    (rnn): GRU(200, 300, batch_first=True, bidirectional=True)
  )
  (src_encoder2): RNNEncoder(
    (rnn): GRU(600, 300, batch_first=True, bidirectional=True)
  )
  (tattention): tattention(
    (dropout): Dropout(p=0.0, inplace=False)
    (softmax): Softmax(dim=-1)
    (linear1): Linear(in_features=600, out_features=600, bias=True)
    (w1): Linear(in_features=600, out_features=600, bias=True)
    (w2): Linear(in_features=600, out_features=600, bias=True)
    (layer_norm): LayerNorm((600,), eps=1e-05, elementwise_affine=True)
    (relu): ReLU(inplace=True)
  )
  (prior_cue_attention): Attention(600, 600, 600, mode='mlp')
  (prior_src_attention): Attention(600, 600, 600, mode='mlp')
  (decoder): RNNDecoder(
    (embedder): Embedder(16840, 200, padding_idx=0)
    (knowledge_attention): Attention(600, 600, 600, mode='mlp')
    (fc_memory): Sequential(
      (0): Linear(in_features=1, out_features=600, bias=True)
      (1): Tanh()
    )
    (select_st): Attention(600, 600, 600, mode='mlp')
    (attention): Attention(600, 600, 600, mode='mlp')
    (rnn): GRU(1400, 600, batch_first=True)
    (fc1): Linear(in_features=600, out_features=600, bias=True)
    (fc2): Linear(in_features=600, out_features=600, bias=True)
    (fc3): Linear(in_features=1200, out_features=1, bias=True)
    (fc4): Linear(in_features=600, out_features=600, bias=True)
    (fc5): Linear(in_features=600, out_features=600, bias=True)
    (fc6): Linear(in_features=1200, out_features=1, bias=True)
    (fc7): Linear(in_features=600, out_features=1, bias=False)
    (tanh): Tanh()
    (sigmoid): Sigmoid()
    (softmax): Softmax(dim=-1)
    (output_layer): Sequential(
      (0): Dropout(p=0.3, inplace=False)
      (1): Linear(in_features=1200, out_features=600, bias=True)
      (2): Linear(in_features=600, out_features=16840, bias=True)
      (3): LogSoftmax(dim=-1)
    )
  )
  (log_softmax): LogSoftmax(dim=-1)
  (softmax): Softmax(dim=-1)
  (sigmoid): Sigmoid()
  (softplus): Softplus(beta=1, threshold=20)
  (bow_output_layer): Sequential(
    (0): Linear(in_features=600, out_features=600, bias=True)
    (1): Tanh()
    (2): Linear(in_features=600, out_features=16840, bias=True)
    (3): LogSoftmax(dim=-1)
  )
  (nll_loss): NLLLoss()
  (kl_loss): KLDivLoss()
)
Number of parameters: 41108682

Training starts ...
KnowledgeSeq2Seq(
  (bridge): Sequential(
    (0): Linear(in_features=1200, out_features=600, bias=True)
    (1): Tanh()
  )
  (knowledge_encoder): RNNEncoder(
    (embedder): Embedder(16840, 200, padding_idx=0)
    (rnn): GRU(200, 300, batch_first=True, bidirectional=True)
  )
  (knowledge_encoder2): RNNEncoder(
    (rnn): GRU(600, 300, batch_first=True, bidirectional=True)
  )
  (src_encoder): RNNEncoder(
    (embedder): Embedder(16840, 200, padding_idx=0)
    (rnn): GRU(200, 300, batch_first=True, bidirectional=True)
  )
  (src_current_encoder): RNNEncoder(
    (embedder): Embedder(16840, 200, padding_idx=0)
    (rnn): GRU(200, 300, batch_first=True, bidirectional=True)
  )
  (src_encoder2): RNNEncoder(
    (rnn): GRU(600, 300, batch_first=True, bidirectional=True)
  )
  (tattention): tattention(
    (dropout): Dropout(p=0.0, inplace=False)
    (softmax): Softmax(dim=-1)
    (linear1): Linear(in_features=600, out_features=600, bias=True)
    (w1): Linear(in_features=600, out_features=600, bias=True)
    (w2): Linear(in_features=600, out_features=600, bias=True)
    (layer_norm): LayerNorm((600,), eps=1e-05, elementwise_affine=True)
    (relu): ReLU(inplace=True)
  )
  (prior_cue_attention): Attention(600, 600, 600, mode='mlp')
  (prior_src_attention): Attention(600, 600, 600, mode='mlp')
  (decoder): RNNDecoder(
    (embedder): Embedder(16840, 200, padding_idx=0)
    (knowledge_attention): Attention(600, 600, 600, mode='mlp')
    (fc_memory): Sequential(
      (0): Linear(in_features=1, out_features=600, bias=True)
      (1): Tanh()
    )
    (select_st): Attention(600, 600, 600, mode='mlp')
    (attention): Attention(600, 600, 600, mode='mlp')
    (rnn): GRU(1400, 600, batch_first=True)
    (fc1): Linear(in_features=600, out_features=600, bias=True)
    (fc2): Linear(in_features=600, out_features=600, bias=True)
    (fc3): Linear(in_features=1200, out_features=1, bias=True)
    (fc4): Linear(in_features=600, out_features=600, bias=True)
    (fc5): Linear(in_features=600, out_features=600, bias=True)
    (fc6): Linear(in_features=1200, out_features=1, bias=True)
    (fc7): Linear(in_features=600, out_features=1, bias=False)
    (tanh): Tanh()
    (sigmoid): Sigmoid()
    (softmax): Softmax(dim=-1)
    (output_layer): Sequential(
      (0): Dropout(p=0.3, inplace=False)
      (1): Linear(in_features=1200, out_features=600, bias=True)
      (2): Linear(in_features=600, out_features=16840, bias=True)
      (3): LogSoftmax(dim=-1)
    )
  )
  (log_softmax): LogSoftmax(dim=-1)
  (softmax): Softmax(dim=-1)
  (sigmoid): Sigmoid()
  (softplus): Softplus(beta=1, threshold=20)
  (bow_output_layer): Sequential(
    (0): Linear(in_features=600, out_features=600, bias=True)
    (1): Tanh()
    (2): Linear(in_features=600, out_features=16840, bias=True)
    (3): LogSoftmax(dim=-1)
  )
  (nll_loss): NLLLoss()
  (kl_loss): KLDivLoss()
)
Number of parameters: 41108682

Training starts ...
KnowledgeSeq2Seq(
  (bridge): Sequential(
    (0): Linear(in_features=1200, out_features=600, bias=True)
    (1): Tanh()
  )
  (knowledge_encoder): RNNEncoder(
    (embedder): Embedder(16840, 200, padding_idx=0)
    (rnn): GRU(200, 300, batch_first=True, bidirectional=True)
  )
  (knowledge_encoder2): RNNEncoder(
    (rnn): GRU(600, 300, batch_first=True, bidirectional=True)
  )
  (src_encoder): RNNEncoder(
    (embedder): Embedder(16840, 200, padding_idx=0)
    (rnn): GRU(200, 300, batch_first=True, bidirectional=True)
  )
  (src_current_encoder): RNNEncoder(
    (embedder): Embedder(16840, 200, padding_idx=0)
    (rnn): GRU(200, 300, batch_first=True, bidirectional=True)
  )
  (src_encoder2): RNNEncoder(
    (rnn): GRU(600, 300, batch_first=True, bidirectional=True)
  )
  (tattention): tattention(
    (dropout): Dropout(p=0.0, inplace=False)
    (softmax): Softmax(dim=-1)
    (linear1): Linear(in_features=600, out_features=600, bias=True)
    (w1): Linear(in_features=600, out_features=600, bias=True)
    (w2): Linear(in_features=600, out_features=600, bias=True)
    (layer_norm): LayerNorm((600,), eps=1e-05, elementwise_affine=True)
    (relu): ReLU(inplace=True)
  )
  (prior_cue_attention): Attention(600, 600, 600, mode='mlp')
  (prior_src_attention): Attention(600, 600, 600, mode='mlp')
  (decoder): RNNDecoder(
    (embedder): Embedder(16840, 200, padding_idx=0)
    (knowledge_attention): Attention(600, 600, 600, mode='mlp')
    (fc_memory): Sequential(
      (0): Linear(in_features=1, out_features=600, bias=True)
      (1): Tanh()
    )
    (select_st): Attention(600, 600, 600, mode='mlp')
    (attention): Attention(600, 600, 600, mode='mlp')
    (rnn): GRU(1400, 600, batch_first=True)
    (fc1): Linear(in_features=600, out_features=600, bias=True)
    (fc2): Linear(in_features=600, out_features=600, bias=True)
    (fc3): Linear(in_features=1200, out_features=1, bias=True)
    (fc4): Linear(in_features=600, out_features=600, bias=True)
    (fc5): Linear(in_features=600, out_features=600, bias=True)
    (fc6): Linear(in_features=1200, out_features=1, bias=True)
    (fc7): Linear(in_features=600, out_features=1, bias=False)
    (tanh): Tanh()
    (sigmoid): Sigmoid()
    (softmax): Softmax(dim=-1)
    (output_layer): Sequential(
      (0): Dropout(p=0.3, inplace=False)
      (1): Linear(in_features=1200, out_features=600, bias=True)
      (2): Linear(in_features=600, out_features=16840, bias=True)
      (3): LogSoftmax(dim=-1)
    )
  )
  (log_softmax): LogSoftmax(dim=-1)
  (softmax): Softmax(dim=-1)
  (sigmoid): Sigmoid()
  (softplus): Softplus(beta=1, threshold=20)
  (bow_output_layer): Sequential(
    (0): Linear(in_features=600, out_features=600, bias=True)
    (1): Tanh()
    (2): Linear(in_features=600, out_features=16840, bias=True)
    (3): LogSoftmax(dim=-1)
  )
  (nll_loss): NLLLoss()
  (kl_loss): KLDivLoss()
)
Number of parameters: 41108682

Training starts ...
KnowledgeSeq2Seq(
  (bridge): Sequential(
    (0): Linear(in_features=1200, out_features=600, bias=True)
    (1): Tanh()
  )
  (knowledge_encoder): RNNEncoder(
    (embedder): Embedder(16840, 200, padding_idx=0)
    (rnn): GRU(200, 300, batch_first=True, bidirectional=True)
  )
  (knowledge_encoder2): RNNEncoder(
    (rnn): GRU(600, 300, batch_first=True, bidirectional=True)
  )
  (src_encoder): RNNEncoder(
    (embedder): Embedder(16840, 200, padding_idx=0)
    (rnn): GRU(200, 300, batch_first=True, bidirectional=True)
  )
  (src_current_encoder): RNNEncoder(
    (embedder): Embedder(16840, 200, padding_idx=0)
    (rnn): GRU(200, 300, batch_first=True, bidirectional=True)
  )
  (src_encoder2): RNNEncoder(
    (rnn): GRU(600, 300, batch_first=True, bidirectional=True)
  )
  (tattention): tattention(
    (dropout): Dropout(p=0.0, inplace=False)
    (softmax): Softmax(dim=-1)
    (linear1): Linear(in_features=600, out_features=600, bias=True)
    (w1): Linear(in_features=600, out_features=600, bias=True)
    (w2): Linear(in_features=600, out_features=600, bias=True)
    (layer_norm): LayerNorm((600,), eps=1e-05, elementwise_affine=True)
    (relu): ReLU(inplace=True)
  )
  (prior_cue_attention): Attention(600, 600, 600, mode='mlp')
  (prior_src_attention): Attention(600, 600, 600, mode='mlp')
  (decoder): RNNDecoder(
    (embedder): Embedder(16840, 200, padding_idx=0)
    (knowledge_attention): Attention(600, 600, 600, mode='mlp')
    (fc_memory): Sequential(
      (0): Linear(in_features=1, out_features=600, bias=True)
      (1): Tanh()
    )
    (select_st): Attention(600, 600, 600, mode='mlp')
    (attention): Attention(600, 600, 600, mode='mlp')
    (rnn): GRU(1400, 600, batch_first=True)
    (fc1): Linear(in_features=600, out_features=600, bias=True)
    (fc2): Linear(in_features=600, out_features=600, bias=True)
    (fc3): Linear(in_features=1200, out_features=1, bias=True)
    (fc4): Linear(in_features=600, out_features=600, bias=True)
    (fc5): Linear(in_features=600, out_features=600, bias=True)
    (fc6): Linear(in_features=1200, out_features=1, bias=True)
    (fc7): Linear(in_features=600, out_features=1, bias=False)
    (tanh): Tanh()
    (sigmoid): Sigmoid()
    (softmax): Softmax(dim=-1)
    (output_layer): Sequential(
      (0): Dropout(p=0.3, inplace=False)
      (1): Linear(in_features=1200, out_features=600, bias=True)
      (2): Linear(in_features=600, out_features=16840, bias=True)
      (3): LogSoftmax(dim=-1)
    )
  )
  (log_softmax): LogSoftmax(dim=-1)
  (softmax): Softmax(dim=-1)
  (sigmoid): Sigmoid()
  (softplus): Softplus(beta=1, threshold=20)
  (bow_output_layer): Sequential(
    (0): Linear(in_features=600, out_features=600, bias=True)
    (1): Tanh()
    (2): Linear(in_features=600, out_features=16840, bias=True)
    (3): LogSoftmax(dim=-1)
  )
  (nll_loss): NLLLoss()
  (kl_loss): KLDivLoss()
)
Number of parameters: 41108682

Training starts ...
KnowledgeSeq2Seq(
  (bridge): Sequential(
    (0): Linear(in_features=1200, out_features=600, bias=True)
    (1): Tanh()
  )
  (knowledge_encoder): RNNEncoder(
    (embedder): Embedder(16840, 200, padding_idx=0)
    (rnn): GRU(200, 300, batch_first=True, bidirectional=True)
  )
  (knowledge_encoder2): RNNEncoder(
    (rnn): GRU(600, 300, batch_first=True, bidirectional=True)
  )
  (src_encoder): RNNEncoder(
    (embedder): Embedder(16840, 200, padding_idx=0)
    (rnn): GRU(200, 300, batch_first=True, bidirectional=True)
  )
  (src_current_encoder): RNNEncoder(
    (embedder): Embedder(16840, 200, padding_idx=0)
    (rnn): GRU(200, 300, batch_first=True, bidirectional=True)
  )
  (src_encoder2): RNNEncoder(
    (rnn): GRU(600, 300, batch_first=True, bidirectional=True)
  )
  (tattention): tattention(
    (dropout): Dropout(p=0.0, inplace=False)
    (softmax): Softmax(dim=-1)
    (linear1): Linear(in_features=600, out_features=600, bias=True)
    (w1): Linear(in_features=600, out_features=600, bias=True)
    (w2): Linear(in_features=600, out_features=600, bias=True)
    (layer_norm): LayerNorm((600,), eps=1e-05, elementwise_affine=True)
    (relu): ReLU(inplace=True)
  )
  (prior_cue_attention): Attention(600, 600, 600, mode='mlp')
  (prior_src_attention): Attention(600, 600, 600, mode='mlp')
  (decoder): RNNDecoder(
    (embedder): Embedder(16840, 200, padding_idx=0)
    (knowledge_attention): Attention(600, 600, 600, mode='mlp')
    (fc_memory): Sequential(
      (0): Linear(in_features=1, out_features=600, bias=True)
      (1): Tanh()
    )
    (select_st): Attention(600, 600, 600, mode='mlp')
    (attention): Attention(600, 600, 600, mode='mlp')
    (rnn): GRU(1400, 600, batch_first=True)
    (fc1): Linear(in_features=600, out_features=600, bias=True)
    (fc2): Linear(in_features=600, out_features=600, bias=True)
    (fc3): Linear(in_features=1200, out_features=1, bias=True)
    (fc4): Linear(in_features=600, out_features=600, bias=True)
    (fc5): Linear(in_features=600, out_features=600, bias=True)
    (fc6): Linear(in_features=1200, out_features=1, bias=True)
    (fc7): Linear(in_features=600, out_features=1, bias=False)
    (tanh): Tanh()
    (sigmoid): Sigmoid()
    (softmax): Softmax(dim=-1)
    (output_layer): Sequential(
      (0): Dropout(p=0.3, inplace=False)
      (1): Linear(in_features=1200, out_features=600, bias=True)
      (2): Linear(in_features=600, out_features=16840, bias=True)
      (3): LogSoftmax(dim=-1)
    )
  )
  (log_softmax): LogSoftmax(dim=-1)
  (softmax): Softmax(dim=-1)
  (sigmoid): Sigmoid()
  (softplus): Softplus(beta=1, threshold=20)
  (bow_output_layer): Sequential(
    (0): Linear(in_features=600, out_features=600, bias=True)
    (1): Tanh()
    (2): Linear(in_features=600, out_features=16840, bias=True)
    (3): LogSoftmax(dim=-1)
  )
  (nll_loss): NLLLoss()
  (kl_loss): KLDivLoss()
)
Number of parameters: 41108682

Training starts ...
KnowledgeSeq2Seq(
  (bridge): Sequential(
    (0): Linear(in_features=1200, out_features=600, bias=True)
    (1): Tanh()
  )
  (knowledge_encoder): RNNEncoder(
    (embedder): Embedder(16840, 200, padding_idx=0)
    (rnn): GRU(200, 300, batch_first=True, bidirectional=True)
  )
  (knowledge_encoder2): RNNEncoder(
    (rnn): GRU(600, 300, batch_first=True, bidirectional=True)
  )
  (src_encoder): RNNEncoder(
    (embedder): Embedder(16840, 200, padding_idx=0)
    (rnn): GRU(200, 300, batch_first=True, bidirectional=True)
  )
  (src_current_encoder): RNNEncoder(
    (embedder): Embedder(16840, 200, padding_idx=0)
    (rnn): GRU(200, 300, batch_first=True, bidirectional=True)
  )
  (src_encoder2): RNNEncoder(
    (rnn): GRU(600, 300, batch_first=True, bidirectional=True)
  )
  (tattention): tattention(
    (dropout): Dropout(p=0.0, inplace=False)
    (softmax): Softmax(dim=-1)
    (linear1): Linear(in_features=600, out_features=600, bias=True)
    (w1): Linear(in_features=600, out_features=600, bias=True)
    (w2): Linear(in_features=600, out_features=600, bias=True)
    (layer_norm): LayerNorm((600,), eps=1e-05, elementwise_affine=True)
    (relu): ReLU(inplace=True)
  )
  (prior_cue_attention): Attention(600, 600, 600, mode='mlp')
  (prior_src_attention): Attention(600, 600, 600, mode='mlp')
  (decoder): RNNDecoder(
    (embedder): Embedder(16840, 200, padding_idx=0)
    (knowledge_attention): Attention(600, 600, 600, mode='mlp')
    (fc_memory): Sequential(
      (0): Linear(in_features=1, out_features=600, bias=True)
      (1): Tanh()
    )
    (select_st): Attention(600, 600, 600, mode='mlp')
    (attention): Attention(600, 600, 600, mode='mlp')
    (rnn): GRU(1400, 600, batch_first=True)
    (fc1): Linear(in_features=600, out_features=600, bias=True)
    (fc2): Linear(in_features=600, out_features=600, bias=True)
    (fc3): Linear(in_features=1200, out_features=1, bias=True)
    (fc4): Linear(in_features=600, out_features=600, bias=True)
    (fc5): Linear(in_features=600, out_features=600, bias=True)
    (fc6): Linear(in_features=1200, out_features=1, bias=True)
    (fc7): Linear(in_features=600, out_features=1, bias=False)
    (tanh): Tanh()
    (sigmoid): Sigmoid()
    (softmax): Softmax(dim=-1)
    (output_layer): Sequential(
      (0): Dropout(p=0.3, inplace=False)
      (1): Linear(in_features=1200, out_features=600, bias=True)
      (2): Linear(in_features=600, out_features=16840, bias=True)
      (3): LogSoftmax(dim=-1)
    )
  )
  (log_softmax): LogSoftmax(dim=-1)
  (softmax): Softmax(dim=-1)
  (sigmoid): Sigmoid()
  (softplus): Softplus(beta=1, threshold=20)
  (bow_output_layer): Sequential(
    (0): Linear(in_features=600, out_features=600, bias=True)
    (1): Tanh()
    (2): Linear(in_features=600, out_features=16840, bias=True)
    (3): LogSoftmax(dim=-1)
  )
  (nll_loss): NLLLoss()
  (kl_loss): KLDivLoss()
)
Number of parameters: 41108682

Training starts ...
KnowledgeSeq2Seq(
  (bridge): Sequential(
    (0): Linear(in_features=1200, out_features=600, bias=True)
    (1): Tanh()
  )
  (knowledge_encoder): RNNEncoder(
    (embedder): Embedder(16840, 200, padding_idx=0)
    (rnn): GRU(200, 300, batch_first=True, bidirectional=True)
  )
  (knowledge_encoder2): RNNEncoder(
    (rnn): GRU(600, 300, batch_first=True, bidirectional=True)
  )
  (src_encoder): RNNEncoder(
    (embedder): Embedder(16840, 200, padding_idx=0)
    (rnn): GRU(200, 300, batch_first=True, bidirectional=True)
  )
  (src_current_encoder): RNNEncoder(
    (embedder): Embedder(16840, 200, padding_idx=0)
    (rnn): GRU(200, 300, batch_first=True, bidirectional=True)
  )
  (src_encoder2): RNNEncoder(
    (rnn): GRU(600, 300, batch_first=True, bidirectional=True)
  )
  (tattention): tattention(
    (dropout): Dropout(p=0.0, inplace=False)
    (softmax): Softmax(dim=-1)
    (linear1): Linear(in_features=600, out_features=600, bias=True)
    (w1): Linear(in_features=600, out_features=600, bias=True)
    (w2): Linear(in_features=600, out_features=600, bias=True)
    (layer_norm): LayerNorm((600,), eps=1e-05, elementwise_affine=True)
    (relu): ReLU(inplace=True)
  )
  (prior_cue_attention): Attention(600, 600, 600, mode='mlp')
  (prior_src_attention): Attention(600, 600, 600, mode='mlp')
  (decoder): RNNDecoder(
    (embedder): Embedder(16840, 200, padding_idx=0)
    (knowledge_attention): Attention(600, 600, 600, mode='mlp')
    (fc_memory): Sequential(
      (0): Linear(in_features=1, out_features=600, bias=True)
      (1): Tanh()
    )
    (select_st): Attention(600, 600, 600, mode='mlp')
    (attention): Attention(600, 600, 600, mode='mlp')
    (rnn): GRU(1400, 600, batch_first=True)
    (fc1): Linear(in_features=600, out_features=600, bias=True)
    (fc2): Linear(in_features=600, out_features=600, bias=True)
    (fc3): Linear(in_features=1200, out_features=1, bias=True)
    (fc4): Linear(in_features=600, out_features=600, bias=True)
    (fc5): Linear(in_features=600, out_features=600, bias=True)
    (fc6): Linear(in_features=1200, out_features=1, bias=True)
    (fc7): Linear(in_features=600, out_features=1, bias=False)
    (tanh): Tanh()
    (sigmoid): Sigmoid()
    (softmax): Softmax(dim=-1)
    (output_layer): Sequential(
      (0): Dropout(p=0.3, inplace=False)
      (1): Linear(in_features=1200, out_features=600, bias=True)
      (2): Linear(in_features=600, out_features=16840, bias=True)
      (3): LogSoftmax(dim=-1)
    )
  )
  (log_softmax): LogSoftmax(dim=-1)
  (softmax): Softmax(dim=-1)
  (sigmoid): Sigmoid()
  (softplus): Softplus(beta=1, threshold=20)
  (bow_output_layer): Sequential(
    (0): Linear(in_features=600, out_features=600, bias=True)
    (1): Tanh()
    (2): Linear(in_features=600, out_features=16840, bias=True)
    (3): LogSoftmax(dim=-1)
  )
  (nll_loss): NLLLoss()
  (kl_loss): KLDivLoss()
)
Number of parameters: 41108682

Training starts ...
KnowledgeSeq2Seq(
  (bridge): Sequential(
    (0): Linear(in_features=1200, out_features=600, bias=True)
    (1): Tanh()
  )
  (knowledge_encoder): RNNEncoder(
    (embedder): Embedder(16840, 200, padding_idx=0)
    (rnn): GRU(200, 300, batch_first=True, bidirectional=True)
  )
  (knowledge_encoder2): RNNEncoder(
    (rnn): GRU(600, 300, batch_first=True, bidirectional=True)
  )
  (src_encoder): RNNEncoder(
    (embedder): Embedder(16840, 200, padding_idx=0)
    (rnn): GRU(200, 300, batch_first=True, bidirectional=True)
  )
  (src_current_encoder): RNNEncoder(
    (embedder): Embedder(16840, 200, padding_idx=0)
    (rnn): GRU(200, 300, batch_first=True, bidirectional=True)
  )
  (src_encoder2): RNNEncoder(
    (rnn): GRU(600, 300, batch_first=True, bidirectional=True)
  )
  (tattention): tattention(
    (dropout): Dropout(p=0.0, inplace=False)
    (softmax): Softmax(dim=-1)
    (linear1): Linear(in_features=600, out_features=600, bias=True)
    (w1): Linear(in_features=600, out_features=600, bias=True)
    (w2): Linear(in_features=600, out_features=600, bias=True)
    (layer_norm): LayerNorm((600,), eps=1e-05, elementwise_affine=True)
    (relu): ReLU(inplace=True)
  )
  (prior_cue_attention): Attention(600, 600, 600, mode='mlp')
  (prior_src_attention): Attention(600, 600, 600, mode='mlp')
  (decoder): RNNDecoder(
    (embedder): Embedder(16840, 200, padding_idx=0)
    (knowledge_attention): Attention(600, 600, 600, mode='mlp')
    (fc_memory): Sequential(
      (0): Linear(in_features=1, out_features=600, bias=True)
      (1): Tanh()
    )
    (select_st): Attention(600, 600, 600, mode='mlp')
    (attention): Attention(600, 600, 600, mode='mlp')
    (rnn): GRU(1400, 600, batch_first=True)
    (fc1): Linear(in_features=600, out_features=600, bias=True)
    (fc2): Linear(in_features=600, out_features=600, bias=True)
    (fc3): Linear(in_features=1200, out_features=1, bias=True)
    (fc4): Linear(in_features=600, out_features=600, bias=True)
    (fc5): Linear(in_features=600, out_features=600, bias=True)
    (fc6): Linear(in_features=1200, out_features=1, bias=True)
    (fc7): Linear(in_features=600, out_features=1, bias=False)
    (tanh): Tanh()
    (sigmoid): Sigmoid()
    (softmax): Softmax(dim=-1)
    (output_layer): Sequential(
      (0): Dropout(p=0.3, inplace=False)
      (1): Linear(in_features=1200, out_features=600, bias=True)
      (2): Linear(in_features=600, out_features=16840, bias=True)
      (3): LogSoftmax(dim=-1)
    )
  )
  (log_softmax): LogSoftmax(dim=-1)
  (softmax): Softmax(dim=-1)
  (sigmoid): Sigmoid()
  (softplus): Softplus(beta=1, threshold=20)
  (bow_output_layer): Sequential(
    (0): Linear(in_features=600, out_features=600, bias=True)
    (1): Tanh()
    (2): Linear(in_features=600, out_features=16840, bias=True)
    (3): LogSoftmax(dim=-1)
  )
  (nll_loss): NLLLoss()
  (kl_loss): KLDivLoss()
)
Number of parameters: 41108682

Training starts ...
KnowledgeSeq2Seq(
  (bridge): Sequential(
    (0): Linear(in_features=1200, out_features=600, bias=True)
    (1): Tanh()
  )
  (knowledge_encoder): RNNEncoder(
    (embedder): Embedder(16840, 200, padding_idx=0)
    (rnn): GRU(200, 300, batch_first=True, bidirectional=True)
  )
  (knowledge_encoder2): RNNEncoder(
    (rnn): GRU(600, 300, batch_first=True, bidirectional=True)
  )
  (src_encoder): RNNEncoder(
    (embedder): Embedder(16840, 200, padding_idx=0)
    (rnn): GRU(200, 300, batch_first=True, bidirectional=True)
  )
  (src_current_encoder): RNNEncoder(
    (embedder): Embedder(16840, 200, padding_idx=0)
    (rnn): GRU(200, 300, batch_first=True, bidirectional=True)
  )
  (src_encoder2): RNNEncoder(
    (rnn): GRU(600, 300, batch_first=True, bidirectional=True)
  )
  (tattention): tattention(
    (dropout): Dropout(p=0.0, inplace=False)
    (softmax): Softmax(dim=-1)
    (linear1): Linear(in_features=600, out_features=600, bias=True)
    (w1): Linear(in_features=600, out_features=600, bias=True)
    (w2): Linear(in_features=600, out_features=600, bias=True)
    (layer_norm): LayerNorm((600,), eps=1e-05, elementwise_affine=True)
    (relu): ReLU(inplace=True)
  )
  (prior_cue_attention): Attention(600, 600, 600, mode='mlp')
  (prior_src_attention): Attention(600, 600, 600, mode='mlp')
  (decoder): RNNDecoder(
    (embedder): Embedder(16840, 200, padding_idx=0)
    (knowledge_attention): Attention(600, 600, 600, mode='mlp')
    (fc_memory): Sequential(
      (0): Linear(in_features=1, out_features=600, bias=True)
      (1): Tanh()
    )
    (select_st): Attention(600, 600, 600, mode='mlp')
    (attention): Attention(600, 600, 600, mode='mlp')
    (rnn): GRU(1400, 600, batch_first=True)
    (fc1): Linear(in_features=600, out_features=600, bias=True)
    (fc2): Linear(in_features=600, out_features=600, bias=True)
    (fc3): Linear(in_features=1200, out_features=1, bias=True)
    (fc4): Linear(in_features=600, out_features=600, bias=True)
    (fc5): Linear(in_features=600, out_features=600, bias=True)
    (fc6): Linear(in_features=1200, out_features=1, bias=True)
    (fc7): Linear(in_features=600, out_features=1, bias=False)
    (tanh): Tanh()
    (sigmoid): Sigmoid()
    (softmax): Softmax(dim=-1)
    (output_layer): Sequential(
      (0): Dropout(p=0.3, inplace=False)
      (1): Linear(in_features=1200, out_features=600, bias=True)
      (2): Linear(in_features=600, out_features=16840, bias=True)
      (3): LogSoftmax(dim=-1)
    )
  )
  (log_softmax): LogSoftmax(dim=-1)
  (softmax): Softmax(dim=-1)
  (sigmoid): Sigmoid()
  (softplus): Softplus(beta=1, threshold=20)
  (bow_output_layer): Sequential(
    (0): Linear(in_features=600, out_features=600, bias=True)
    (1): Tanh()
    (2): Linear(in_features=600, out_features=16840, bias=True)
    (3): LogSoftmax(dim=-1)
  )
  (nll_loss): NLLLoss()
  (kl_loss): KLDivLoss()
)
Number of parameters: 41108682

Training starts ...
KnowledgeSeq2Seq(
  (bridge): Sequential(
    (0): Linear(in_features=1200, out_features=600, bias=True)
    (1): Tanh()
  )
  (knowledge_encoder): RNNEncoder(
    (embedder): Embedder(16840, 200, padding_idx=0)
    (rnn): GRU(200, 300, batch_first=True, bidirectional=True)
  )
  (knowledge_encoder2): RNNEncoder(
    (rnn): GRU(600, 300, batch_first=True, bidirectional=True)
  )
  (src_encoder): RNNEncoder(
    (embedder): Embedder(16840, 200, padding_idx=0)
    (rnn): GRU(200, 300, batch_first=True, bidirectional=True)
  )
  (src_current_encoder): RNNEncoder(
    (embedder): Embedder(16840, 200, padding_idx=0)
    (rnn): GRU(200, 300, batch_first=True, bidirectional=True)
  )
  (src_encoder2): RNNEncoder(
    (rnn): GRU(600, 300, batch_first=True, bidirectional=True)
  )
  (tattention): tattention(
    (dropout): Dropout(p=0.0, inplace=False)
    (softmax): Softmax(dim=-1)
    (linear1): Linear(in_features=600, out_features=600, bias=True)
    (w1): Linear(in_features=600, out_features=600, bias=True)
    (w2): Linear(in_features=600, out_features=600, bias=True)
    (layer_norm): LayerNorm((600,), eps=1e-05, elementwise_affine=True)
    (relu): ReLU(inplace=True)
  )
  (prior_cue_attention): Attention(600, 600, 600, mode='mlp')
  (prior_src_attention): Attention(600, 600, 600, mode='mlp')
  (decoder): RNNDecoder(
    (embedder): Embedder(16840, 200, padding_idx=0)
    (knowledge_attention): Attention(600, 600, 600, mode='mlp')
    (fc_memory): Sequential(
      (0): Linear(in_features=1, out_features=600, bias=True)
      (1): Tanh()
    )
    (select_st): Attention(600, 600, 600, mode='mlp')
    (attention): Attention(600, 600, 600, mode='mlp')
    (rnn): GRU(1400, 600, batch_first=True)
    (fc1): Linear(in_features=600, out_features=600, bias=True)
    (fc2): Linear(in_features=600, out_features=600, bias=True)
    (fc3): Linear(in_features=1200, out_features=1, bias=True)
    (fc4): Linear(in_features=600, out_features=600, bias=True)
    (fc5): Linear(in_features=600, out_features=600, bias=True)
    (fc6): Linear(in_features=1200, out_features=1, bias=True)
    (fc7): Linear(in_features=600, out_features=1, bias=False)
    (tanh): Tanh()
    (sigmoid): Sigmoid()
    (softmax): Softmax(dim=-1)
    (output_layer): Sequential(
      (0): Dropout(p=0.3, inplace=False)
      (1): Linear(in_features=1200, out_features=600, bias=True)
      (2): Linear(in_features=600, out_features=16840, bias=True)
      (3): LogSoftmax(dim=-1)
    )
  )
  (log_softmax): LogSoftmax(dim=-1)
  (softmax): Softmax(dim=-1)
  (sigmoid): Sigmoid()
  (softplus): Softplus(beta=1, threshold=20)
  (bow_output_layer): Sequential(
    (0): Linear(in_features=600, out_features=600, bias=True)
    (1): Tanh()
    (2): Linear(in_features=600, out_features=16840, bias=True)
    (3): LogSoftmax(dim=-1)
  )
  (nll_loss): NLLLoss()
  (kl_loss): KLDivLoss()
)
Number of parameters: 41108682

Training starts ...
KnowledgeSeq2Seq(
  (bridge): Sequential(
    (0): Linear(in_features=1200, out_features=600, bias=True)
    (1): Tanh()
  )
  (knowledge_encoder): RNNEncoder(
    (embedder): Embedder(16840, 200, padding_idx=0)
    (rnn): GRU(200, 300, batch_first=True, bidirectional=True)
  )
  (knowledge_encoder2): RNNEncoder(
    (rnn): GRU(600, 300, batch_first=True, bidirectional=True)
  )
  (src_encoder): RNNEncoder(
    (embedder): Embedder(16840, 200, padding_idx=0)
    (rnn): GRU(200, 300, batch_first=True, bidirectional=True)
  )
  (src_current_encoder): RNNEncoder(
    (embedder): Embedder(16840, 200, padding_idx=0)
    (rnn): GRU(200, 300, batch_first=True, bidirectional=True)
  )
  (src_encoder2): RNNEncoder(
    (rnn): GRU(600, 300, batch_first=True, bidirectional=True)
  )
  (tattention): tattention(
    (dropout): Dropout(p=0.0, inplace=False)
    (softmax): Softmax(dim=-1)
    (linear1): Linear(in_features=600, out_features=600, bias=True)
    (w1): Linear(in_features=600, out_features=600, bias=True)
    (w2): Linear(in_features=600, out_features=600, bias=True)
    (layer_norm): LayerNorm((600,), eps=1e-05, elementwise_affine=True)
    (relu): ReLU(inplace=True)
  )
  (prior_cue_attention): Attention(600, 600, 600, mode='mlp')
  (prior_src_attention): Attention(600, 600, 600, mode='mlp')
  (decoder): RNNDecoder(
    (embedder): Embedder(16840, 200, padding_idx=0)
    (knowledge_attention): Attention(600, 600, 600, mode='mlp')
    (fc_memory): Sequential(
      (0): Linear(in_features=1, out_features=600, bias=True)
      (1): Tanh()
    )
    (select_st): Attention(600, 600, 600, mode='mlp')
    (attention): Attention(600, 600, 600, mode='mlp')
    (rnn): GRU(1400, 600, batch_first=True)
    (fc1): Linear(in_features=600, out_features=600, bias=True)
    (fc2): Linear(in_features=600, out_features=600, bias=True)
    (fc3): Linear(in_features=1200, out_features=1, bias=True)
    (fc4): Linear(in_features=600, out_features=600, bias=True)
    (fc5): Linear(in_features=600, out_features=600, bias=True)
    (fc6): Linear(in_features=1200, out_features=1, bias=True)
    (fc7): Linear(in_features=600, out_features=1, bias=False)
    (tanh): Tanh()
    (sigmoid): Sigmoid()
    (softmax): Softmax(dim=-1)
    (output_layer): Sequential(
      (0): Dropout(p=0.3, inplace=False)
      (1): Linear(in_features=1200, out_features=600, bias=True)
      (2): Linear(in_features=600, out_features=16840, bias=True)
      (3): LogSoftmax(dim=-1)
    )
  )
  (log_softmax): LogSoftmax(dim=-1)
  (softmax): Softmax(dim=-1)
  (sigmoid): Sigmoid()
  (softplus): Softplus(beta=1, threshold=20)
  (bow_output_layer): Sequential(
    (0): Linear(in_features=600, out_features=600, bias=True)
    (1): Tanh()
    (2): Linear(in_features=600, out_features=16840, bias=True)
    (3): LogSoftmax(dim=-1)
  )
  (nll_loss): NLLLoss()
  (kl_loss): KLDivLoss()
)
Number of parameters: 41108682

Training starts ...
KnowledgeSeq2Seq(
  (bridge): Sequential(
    (0): Linear(in_features=1200, out_features=600, bias=True)
    (1): Tanh()
  )
  (knowledge_encoder): RNNEncoder(
    (embedder): Embedder(16840, 200, padding_idx=0)
    (rnn): GRU(200, 300, batch_first=True, bidirectional=True)
  )
  (knowledge_encoder2): RNNEncoder(
    (rnn): GRU(600, 300, batch_first=True, bidirectional=True)
  )
  (src_encoder): RNNEncoder(
    (embedder): Embedder(16840, 200, padding_idx=0)
    (rnn): GRU(200, 300, batch_first=True, bidirectional=True)
  )
  (src_current_encoder): RNNEncoder(
    (embedder): Embedder(16840, 200, padding_idx=0)
    (rnn): GRU(200, 300, batch_first=True, bidirectional=True)
  )
  (src_encoder2): RNNEncoder(
    (rnn): GRU(600, 300, batch_first=True, bidirectional=True)
  )
  (tattention): tattention(
    (dropout): Dropout(p=0.0, inplace=False)
    (softmax): Softmax(dim=-1)
    (linear1): Linear(in_features=600, out_features=600, bias=True)
    (w1): Linear(in_features=600, out_features=600, bias=True)
    (w2): Linear(in_features=600, out_features=600, bias=True)
    (layer_norm): LayerNorm((600,), eps=1e-05, elementwise_affine=True)
    (relu): ReLU(inplace=True)
  )
  (prior_cue_attention): Attention(600, 600, 600, mode='mlp')
  (prior_src_attention): Attention(600, 600, 600, mode='mlp')
  (decoder): RNNDecoder(
    (embedder): Embedder(16840, 200, padding_idx=0)
    (knowledge_attention): Attention(600, 600, 600, mode='mlp')
    (fc_memory): Sequential(
      (0): Linear(in_features=1, out_features=600, bias=True)
      (1): Tanh()
    )
    (select_st): Attention(600, 600, 600, mode='mlp')
    (attention): Attention(600, 600, 600, mode='mlp')
    (rnn): GRU(1400, 600, batch_first=True)
    (fc1): Linear(in_features=600, out_features=600, bias=True)
    (fc2): Linear(in_features=600, out_features=600, bias=True)
    (fc3): Linear(in_features=1200, out_features=1, bias=True)
    (fc4): Linear(in_features=600, out_features=600, bias=True)
    (fc5): Linear(in_features=600, out_features=600, bias=True)
    (fc6): Linear(in_features=1200, out_features=1, bias=True)
    (fc7): Linear(in_features=600, out_features=1, bias=False)
    (tanh): Tanh()
    (sigmoid): Sigmoid()
    (softmax): Softmax(dim=-1)
    (output_layer): Sequential(
      (0): Dropout(p=0.3, inplace=False)
      (1): Linear(in_features=1200, out_features=600, bias=True)
      (2): Linear(in_features=600, out_features=16840, bias=True)
      (3): LogSoftmax(dim=-1)
    )
  )
  (log_softmax): LogSoftmax(dim=-1)
  (softmax): Softmax(dim=-1)
  (sigmoid): Sigmoid()
  (softplus): Softplus(beta=1, threshold=20)
  (bow_output_layer): Sequential(
    (0): Linear(in_features=600, out_features=600, bias=True)
    (1): Tanh()
    (2): Linear(in_features=600, out_features=16840, bias=True)
    (3): LogSoftmax(dim=-1)
  )
  (nll_loss): NLLLoss()
  (kl_loss): KLDivLoss()
)
Number of parameters: 41108682

Training starts ...
KnowledgeSeq2Seq(
  (bridge): Sequential(
    (0): Linear(in_features=1200, out_features=600, bias=True)
    (1): Tanh()
  )
  (knowledge_encoder): RNNEncoder(
    (embedder): Embedder(16840, 200, padding_idx=0)
    (rnn): GRU(200, 300, batch_first=True, bidirectional=True)
  )
  (knowledge_encoder2): RNNEncoder(
    (rnn): GRU(600, 300, batch_first=True, bidirectional=True)
  )
  (src_encoder): RNNEncoder(
    (embedder): Embedder(16840, 200, padding_idx=0)
    (rnn): GRU(200, 300, batch_first=True, bidirectional=True)
  )
  (src_current_encoder): RNNEncoder(
    (embedder): Embedder(16840, 200, padding_idx=0)
    (rnn): GRU(200, 300, batch_first=True, bidirectional=True)
  )
  (src_encoder2): RNNEncoder(
    (rnn): GRU(600, 300, batch_first=True, bidirectional=True)
  )
  (tattention): tattention(
    (dropout): Dropout(p=0.0, inplace=False)
    (softmax): Softmax(dim=-1)
    (linear1): Linear(in_features=600, out_features=600, bias=True)
    (w1): Linear(in_features=600, out_features=600, bias=True)
    (w2): Linear(in_features=600, out_features=600, bias=True)
    (layer_norm): LayerNorm((600,), eps=1e-05, elementwise_affine=True)
    (relu): ReLU(inplace=True)
  )
  (prior_cue_attention): Attention(600, 600, 600, mode='mlp')
  (prior_src_attention): Attention(600, 600, 600, mode='mlp')
  (decoder): RNNDecoder(
    (embedder): Embedder(16840, 200, padding_idx=0)
    (knowledge_attention): Attention(600, 600, 600, mode='mlp')
    (fc_memory): Sequential(
      (0): Linear(in_features=1, out_features=600, bias=True)
      (1): Tanh()
    )
    (select_st): Attention(600, 600, 600, mode='mlp')
    (attention): Attention(600, 600, 600, mode='mlp')
    (rnn): GRU(1400, 600, batch_first=True)
    (fc1): Linear(in_features=600, out_features=600, bias=True)
    (fc2): Linear(in_features=600, out_features=600, bias=True)
    (fc3): Linear(in_features=1200, out_features=1, bias=True)
    (fc4): Linear(in_features=600, out_features=600, bias=True)
    (fc5): Linear(in_features=600, out_features=600, bias=True)
    (fc6): Linear(in_features=1200, out_features=1, bias=True)
    (fc7): Linear(in_features=600, out_features=1, bias=False)
    (tanh): Tanh()
    (sigmoid): Sigmoid()
    (softmax): Softmax(dim=-1)
    (output_layer): Sequential(
      (0): Dropout(p=0.3, inplace=False)
      (1): Linear(in_features=1200, out_features=600, bias=True)
      (2): Linear(in_features=600, out_features=16840, bias=True)
      (3): LogSoftmax(dim=-1)
    )
  )
  (log_softmax): LogSoftmax(dim=-1)
  (softmax): Softmax(dim=-1)
  (sigmoid): Sigmoid()
  (softplus): Softplus(beta=1, threshold=20)
  (bow_output_layer): Sequential(
    (0): Linear(in_features=600, out_features=600, bias=True)
    (1): Tanh()
    (2): Linear(in_features=600, out_features=16840, bias=True)
    (3): LogSoftmax(dim=-1)
  )
  (nll_loss): NLLLoss()
  (kl_loss): KLDivLoss()
)
Number of parameters: 41108682

Training starts ...
KnowledgeSeq2Seq(
  (bridge): Sequential(
    (0): Linear(in_features=1200, out_features=600, bias=True)
    (1): Tanh()
  )
  (knowledge_encoder): RNNEncoder(
    (embedder): Embedder(16840, 200, padding_idx=0)
    (rnn): GRU(200, 300, batch_first=True, bidirectional=True)
  )
  (knowledge_encoder2): RNNEncoder(
    (rnn): GRU(600, 300, batch_first=True, bidirectional=True)
  )
  (src_encoder): RNNEncoder(
    (embedder): Embedder(16840, 200, padding_idx=0)
    (rnn): GRU(200, 300, batch_first=True, bidirectional=True)
  )
  (src_current_encoder): RNNEncoder(
    (embedder): Embedder(16840, 200, padding_idx=0)
    (rnn): GRU(200, 300, batch_first=True, bidirectional=True)
  )
  (src_encoder2): RNNEncoder(
    (rnn): GRU(600, 300, batch_first=True, bidirectional=True)
  )
  (tattention): tattention(
    (dropout): Dropout(p=0.0, inplace=False)
    (softmax): Softmax(dim=-1)
    (linear1): Linear(in_features=600, out_features=600, bias=True)
    (w1): Linear(in_features=600, out_features=600, bias=True)
    (w2): Linear(in_features=600, out_features=600, bias=True)
    (layer_norm): LayerNorm((600,), eps=1e-05, elementwise_affine=True)
    (relu): ReLU(inplace=True)
  )
  (prior_cue_attention): Attention(600, 600, 600, mode='mlp')
  (prior_src_attention): Attention(600, 600, 600, mode='mlp')
  (decoder): RNNDecoder(
    (embedder): Embedder(16840, 200, padding_idx=0)
    (knowledge_attention): Attention(600, 600, 600, mode='mlp')
    (fc_memory): Sequential(
      (0): Linear(in_features=1, out_features=600, bias=True)
      (1): Tanh()
    )
    (select_st): Attention(600, 600, 600, mode='mlp')
    (attention): Attention(600, 600, 600, mode='mlp')
    (rnn): GRU(1400, 600, batch_first=True)
    (fc1): Linear(in_features=600, out_features=600, bias=True)
    (fc2): Linear(in_features=600, out_features=600, bias=True)
    (fc3): Linear(in_features=1200, out_features=1, bias=True)
    (fc4): Linear(in_features=600, out_features=600, bias=True)
    (fc5): Linear(in_features=600, out_features=600, bias=True)
    (fc6): Linear(in_features=1200, out_features=1, bias=True)
    (fc7): Linear(in_features=600, out_features=1, bias=False)
    (tanh): Tanh()
    (sigmoid): Sigmoid()
    (softmax): Softmax(dim=-1)
    (output_layer): Sequential(
      (0): Dropout(p=0.3, inplace=False)
      (1): Linear(in_features=1200, out_features=600, bias=True)
      (2): Linear(in_features=600, out_features=16840, bias=True)
      (3): LogSoftmax(dim=-1)
    )
  )
  (log_softmax): LogSoftmax(dim=-1)
  (softmax): Softmax(dim=-1)
  (sigmoid): Sigmoid()
  (softplus): Softplus(beta=1, threshold=20)
  (bow_output_layer): Sequential(
    (0): Linear(in_features=600, out_features=600, bias=True)
    (1): Tanh()
    (2): Linear(in_features=600, out_features=16840, bias=True)
    (3): LogSoftmax(dim=-1)
  )
  (nll_loss): NLLLoss()
  (kl_loss): KLDivLoss()
)
Number of parameters: 41108682

Training starts ...
NLL-162.151   NLL_PPL-16950.402   ACC-0.000   LOSS-162.151

=====================================================================================
================================== Model Training ===================================
…
